models/best_ccs_lstm_model.pth (torch, 134011 bytes, 16 tensors)

lstm1.weight_ih_l0 f4 [256, 7]
0.09547728 0.104024224 -0.026050255 0.112576775 -0.022787008 0.030837895 -0.05770692 0.0782481
0.106550395 -0.093558624 0.10389818 0.029907474 0.094587475 0.012981701 0.056296628 -0.01487162
0.09811302 0.02237315 -0.06089933 0.026374739 -0.05673728 -0.011992428 -0.049421117 0.08207134
-0.09973226 -0.05687223 -0.031438705 -0.076155014 0.0162012 -0.12765485 0.11807027 -0.10827287
0.10179773 0.015900098 -0.035768088 0.07766613 0.02194425 0.09890706 0.014484151 -0.043067235
0.035782695 -0.035566173 0.056373466 0.11752015 0.068654805 -0.05057774 0.07019907 0.024439594
0.060417425 -0.0838191 -0.120097116 -0.041892093 -0.08866128 0.095196165 0.038114358 0.052522633
0.035828333 -0.005197566 0.10529579 -0.08949107 0.008944015 -0.09031003 0.0372234 -0.050233625
0.032068085 -0.018530402 0.10139488 -0.068567425 -0.08070048 -0.06866361 0.113444455 0.04663803
0.11679171 -0.09704861 -0.12953222 -0.10074427 -0.09096841 0.049000055 0.039147545 0.10657034
-0.06191519 -0.082956135 0.06275418 -0.056249283 0.08149681 -0.02335572 0.06484598 -0.10202813
-0.058577277 0.040914446 0.031077076 -0.028222905 0.079313196 0.0799775 -0.09271986 -0.072140895
0.12082329 -0.04650588 -0.04947261 -0.12296016 -0.0755697 0.0252633 -0.019848522 -0.085007496
0.010688652 -0.08013462 -0.0976273 -0.07666731 -0.115769856 -0.077579424 0.13322747 0.01581429
0.033040434 -0.11998058 -0.07645063 -0.042210568 0.024551027 -0.11005859 -0.05096675 -0.070122205
0.0047886646 -0.05207748 -0.0077681993 -0.08305807 -0.08836304 -0.08099517 -0.047835145 -0.10362707
0.11025166 -0.01964047 0.108521834 0.034317717 -0.10005671 0.08889507 -0.031774398 -0.048886232
-0.10478141 -0.12413163 0.035819408 -0.02856033 0.042577006 -0.102835156 0.09151307 -0.093665205
-0.026118245 0.025860047 0.06268017 0.09440332 0.12008976 -0.09349213 0.038597118 -0.058860965
-0.021392656 -0.08747372 0.11227601 -0.093947 0.07047914 0.042906377 0.04273919 -0.06939822
0.11442957 0.028112609 0.012311654 -0.11276316 0.04676435 -0.013170084 -0.050315045 0.10976829
0.036442637 -0.06449874 -0.070202574 -0.006036582 0.07011282 -0.027914489 -0.07841487 -0.045837753
-0.09750286 0.05315937 0.097052835 -0.114450686 0.022110835 0.06684488 0.021436041 -0.046828613
0.06296879 0.06393919 0.046338014 -0.020487 -0.034200165 0.018957855 -0.022658784 -0.04159381
0.07148254 0.1139261 -0.012226234 -0.036567576 0.0046961443 -0.0018864401 0.02406959 0.03885373
-0.11200686 -0.053927686 0.099387616 0.05676308 0.0016447401 -0.083837345 -0.07136279 -0.11873683
-0.038202148 0.03488479 0.08687741 0.065871336 -0.11821645 -0.068298064 -0.026904944 0.11928757
0.010614294 -0.03505036 0.04563406 -0.041908327 -0.08594766 0.09522963 -0.064464934 -0.018405963
-0.12444987 0.08432352 0.0963774 0.045890506 -0.0879282 -0.12156405 -0.10433373 0.09619104
0.06361693 0.099713035 0.059208866 0.036665086 0.0060742106 -0.1021335 -0.106492706 -0.11346115
0.049131535 -0.065205865 -0.025349878 -0.0693458 -0.028413367 -0.09189872 -0.081118084 0.043822896
-0.033710726 0.070750445 -0.04238068 -0.09072617 -0.0212849 -0.05581963 -0.041365616 -0.12260269
00000000: 9889 c33d a70a d53d 5867 d5bc a78e e63d
00000010: d2ab babc c19f fc3c 175e 6cbd 8a40 a03d
00000020: 1837 da3d aa9b bfbd 92c8 d43d 8500 f53c
00000030: 14b7 c13d 33b1 543c 4b97 663d 18a8 73bc
00000040: 7bef c83d e547 b73c 9371 79bd d60f d83c
00000050: 5a65 68bd e47b 44bc cc6d 4abd 0515 a83d
00000060: 6d40 ccbd dbf2 68bd dfc5 00bd 29f7 9bbd
00000070: 61b8 843c f4b7 02be d3ce f13d 2bbe ddbd
00000080: 547b d03d ec40 823c 8f81 12bd 6c0f 9f3d
00000090: 6ec4 b33c c98f ca3d ef4e 6d3c 4567 30bd
000000a0: e090 123d d6ad 11bd dde7 663d 68ae f03d
000000b0: e49a 8c3d 9b2a 4fbd 88c4 8f3d 8b35 c83c
000000c0: 4378 773d 59a9 abbd 7af5 f5bd 0b97 2bbd
000000d0: 0c94 b5bd 35f6 c23d cd1d 1c3d f921 573d
000000e0: bbc0 123d 5850 aabb 52a5 d73d 1847 b7bd
000000f0: eb89 123c 77f4 b8bd 9077 183d c6c1 4dbd
00000100: d359 033d 12cd 97bc 1ea8 cf3d 146d 8cbd
00000110: 4b46 a5bd 829f 8cbd 9155 e83d 8507 3f3d
00000120: 7e30 ef3d 6cc1 c6bd 18a4 04be 0353 cebd
00000130: a54d babd 48b4 483d 2d59 203d 8d41 da3d
00000140: c89a 7dbd e8e4 a9bd 4385 803d a665 66bd
00000150: cde7 a63d 7f54 bfbc f8cd 843d 20f4 d0bd
00000160: baee 6fbd e895 273d 5a95 fe3c b933 e7bc
00000170: f56e a23d 3ecb a33d e9e3 bdbd 9bbe 93bd
00000180: 3372 f73d f37c 3ebd cba3 4abd 89d2 fbbd
00000190: 49c4 9abd fbf4 ce3c 5e99 a2bc 6918 aebd
000001a0: 751f 2f3c 9f1d a4bd d2f0 c7bd c003 9dbd
000001b0: bf18 edbd f6e1 9ebd c86c 083e f88c 813c
000001c0: 6855 073d 61b8 f5bd 2692 9cbd fde4 2cbd
000001d0: 3c1f c93c 6666 e1bd 83c2 50bd 3b9c 8fbd
000001e0: 3bea 9c3b 324f 55bd 618c febb 591a aabd
000001f0: aef7 b4bd cce0 a5bd c9ee 43bd 6e3a d4bd
00000200: 9fcb e13d 0de5 a0bc b240 de3d bc90 0c3d
00000210: 88ea ccbd 9e0e b63d df25 02bd ee3c 48bd
00000220: a397 d6bd b938 febd 5fb7 123d 5af7 e9bc
00000230: 3a65 2e3d 3d9b d2bd 346b bb3d 8bd3 bfbd
00000240: eef5 d5bc 73d8 d33c 765e 803d 8756 c13d
00000250: 9ff1 f53d cd78 bfbd 0318 1e3d 3218 71bd
00000260: a73f afbc 6c25 b3bd f7f0 e53d 4967 c0bd
00000270: 5e57 903d 99be 2f3d 4a0f 2f3d a720 8ebd
00000280: 0d5a ea3d 6a4c e63c d2b6 493c 5ff0 e6bd
00000290: fa8b 3f3d 56c7 57bc 2617 4ebd 32ce e03d
000002a0: e044 153d ea17 84bd 5ec6 8fbd 85ce c5bb
000002b0: 4f97 8f3d edac e4bc fa97 a0bd 5ec0 3bbd
000002c0: 94af c7bd a4bd 593d a3c3 c63d 1f65 eabd
000002d0: c821 b53c f8e5 883d a39a af3c 5ccf 3fbd
000002e0: c8f5 803d 8df2 823d eecc 3d3d 5ad4 a7bc
000002f0: 7915 0cbd 814d 9b3c ea9e b9bc 455e 2abd
00000300: 7065 923d 1652 e93d 8b50 48bc e2c7 15bd
00000310: 1de2 993b 6d42 f7ba 972d c53c 1725 1f3d
00000320: da63 e5bd 47e3 5cbd bc8b cb3d 6780 683d
00000330: 5294 d73a eab2 abbd a826 92bd 4c2c f3bd
00000340: db79 1cbd 5be3 0e3d c9ec b13d 8de7 863d
00000350: 771b f2bd dbdf 8bbd c267 dcbc 0b4d f43d
00000360: 93e7 2d3c f790 0fbd c8ea 3a3d 11a8 2bbd
00000370: 5405 b0bd c107 c33d 3106 84bd 1ac8 96bc
00000380: 93df febd cfb1 ac3d 8461 c53d aff7 3b3d
00000390: b313 b4bd 93f6 f8bd ecac d5bd cfff c43d
000003a0: 9849 823d 5936 cc3d ff84 723d 212e 163d
000003b0: 2c0a c73b 5e2b d1bd d918 dabd 525e e8bd
000003c0: 263e 493d a78a 85bd 8caa cfbc 2c05 8ebd
000003d0: 26c3 e8bc 6535 bcbd 3d21 a6bd a37f 333d
000003e0: 4214 0abd 9ce5 903d 5d97 2dbd a4ce b9bd
000003f0: ac5d aebc 20a3 64bd fe6e 29bd 1e17 fbbd

lstm1.weight_hh_l0 f4 [256, 64]
-0.10826572 0.11686357 -0.011440382 -0.059964295 -0.044464055 -0.09936152 0.09531299 -0.021056185
-0.06759628 -0.08965599 0.0795987 -0.010508319 -0.020228412 -0.031156067 -0.061175067 0.01692742
0.09854166 -0.078409515 -7.3668605e-05 -0.09534595 -0.055853467 0.11094784 0.007749204 0.12754245
-0.02184936 -0.06329783 -0.07669146 0.11177608 -0.097906575 0.071210876 0.02535405 0.03912747
0.07173946 -0.02688285 0.074382156 -0.10345392 -0.045379207 0.09882596 0.03666681 -0.013855046
-0.030585947 -0.07782634 0.07415387 -0.0028526615 -0.0026693833 0.035648957 0.093853965 -0.06608058
-0.04075253 0.08687177 0.06400256 -0.06007666 -0.11662078 0.025647407 0.05873296 0.032846715
0.087765 -0.09875146 0.061365366 -0.07854669 0.069483876 0.09048909 0.03301143 0.10126308
-0.08000866 -0.1087569 -0.123543575 0.08206742 0.038701754 -0.094831385 0.06492149 0.11895829
-0.12810282 0.09316221 0.018595813 0.007216166 0.10990069 0.11104581 0.05070521 0.096965834
0.04983819 0.025375016 -0.10921957 0.019341793 -0.09183684 0.042025685 0.02565278 0.002833776
-0.08959828 -0.0729446 0.09717114 0.05606303 0.06203821 -0.03394658 -0.023751488 -0.029459843
0.08962545 -0.05151987 0.08196846 0.09011347 -0.111818336 -0.0007377389 -0.026538698 -0.07279742
0.054633718 -0.018223362 0.106676415 -0.07599607 0.05796136 -0.10969034 -0.059231877 0.004032125
0.0987621 0.060571723 -0.099356085 0.01700042 -0.07152687 0.009240503 -0.10745142 -0.033565518
0.086131535 -0.11039918 -0.11847303 0.019082116 0.013854849 -0.018446462 0.104317665 -0.07820185
-0.07965377 -0.09465582 -0.020113034 -0.035499953 0.08126244 -0.0050497134 0.03623499 -0.050038222
0.10461701 0.10411769 -0.10891293 -0.028947616 -0.103835076 0.05914905 -0.10402726 -0.05799388
0.11939457 -0.11994775 0.093391836 0.01204088 0.09827311 -0.06668282 0.08181609 0.012439941
0.013132163 0.085379906 -0.12438818 -0.098086014 0.12243378 -0.07517387 -0.08911796 -0.009042376
-0.04272293 -0.013878191 -0.08794583 0.040590517 -0.10881038 0.009271517 0.07531778 0.027733376
0.021445805 0.016557988 -0.03562723 -0.029114988 -0.05764712 -0.08027065 -0.06814739 0.12456552
-0.026133187 0.04659245 0.08683365 -0.0055963295 -0.06898556 -0.086508885 -0.04701849 0.041994028
-0.10184292 -0.016952213 0.05302098 0.105799966 0.037577108 0.026210483 0.084527925 0.05433612
0.044523597 -0.038198933 -0.102536485 -0.024791809 -0.024270901 0.0071734595 -0.011036473 0.05131684
0.082002446 -0.050501388 -0.11860102 -0.06379752 -0.06244659 0.069049574 -0.08280939 -0.014459172
-0.031190408 -0.0768579 0.052616682 -0.0530935 -0.004915922 -0.08592924 -0.009820343 0.02021574
-0.0059445905 -0.045731474 0.036647998 -0.033732474 -0.0712215 -0.091406405 -0.027397983 -0.11614037
0.104617186 -0.058740146 -0.050031245 0.012955259 0.036348 -0.009779952 0.08517719 -0.07478405
0.039239887 0.0009891259 -0.10458236 -0.046847347 0.033885136 0.018762978 0.09279897 0.08147499
-0.06672342 -0.048068862 -0.030344067 -0.09516639 -0.031118486 -0.100111075 0.04582799 0.090881184
0.007746871 -0.087269075 -0.09408936 -0.051234383 0.03472298 0.0012082431 0.021111397 0.121299036
00000000: 6bba ddbd 2b56 ef3d 7170 3bbc 1f9d 75bd
00000010: f11f 36bd 0d7e cbbd 7533 c33d 057e acbc
00000020: eb6f 8abd 8f9d b7bd a504 a33d 162b 2cbc
00000030: 0eb6 a5bc 023b ffbc b592 7abd 5fab 8a3c
00000040: 36d0 c93d 2b95 a0bd 887e 9ab8 bd44 c3bd
00000050: 9bc6 64bd 9f38 e33d 09ed fd3b 7d9a 023e
00000060: 6efd b2bc 4ba2 81bd 6a10 9dbd dcea e43d
00000070: 3e83 c8bd 02d7 913d 4cb3 cf3c 2044 203d
00000080: 23ec 923d 6c39 dcbc ac55 983d a6df d3bd
00000090: 8cdf 39bd 4465 ca3d f02f 163d 4600 63bc
000000a0: 618f fabc 6b63 9fbd fcdd 973d b8f3 3abb
000000b0: d2f0 2ebb a404 123d 8236 c03d 4155 87bd
000000c0: 20ec 26bd d4e9 b13d c613 833d f212 76bd
000000d0: e0d6 eebd 831a d23c f991 703d 478a 063d
000000e0: 23be b33d 353e cabd 405a 7b3d 16dd a0bd
000000f0: 904d 8e3d 5852 b93d fe36 073d 0563 cf3d
00000100: 95db a3bd f0bb debd 6a04 fdbd f712 a83d
00000110: bb85 1e3d f536 c2bd 8ff5 843d 67a0 f33d
00000120: 632d 03be d4cb be3d 3f56 983c 9675 ec3b
00000130: 9d13 e13d fc6b e33d 44b0 4f3d 0696 c63d
00000140: 2123 4c3d 44df cf3c 83ae dfbd ae72 9e3c
00000150: f414 bcbd 2023 2c3d c725 d23c dfb6 393b
00000160: 4e7f b7bd fa63 95bd aa01 c73d 59a2 653d
00000170: c71b 7e3d 920b 0bbd 7b92 c2bc c555 f1bc
00000180: 8c8d b73d 8006 53bd 14df a73d 698d b83d
00000190: 0301 e5bd d264 41ba af67 d9bc d016 95bd
000001a0: 9bc7 5f3d 2949 95bc 2a79 da3d d4a3 9bbd
000001b0: e468 6d3d 54a5 e0bd 209d 72bd eb1f 843b
000001c0: c943 ca3d 0e1a 783d 347b cbbd 7744 8b3c
000001d0: ae7c 92bd 7b65 173c 7d0f dcbd ff7b 09bd
000001e0: bb65 b03d f718 e2bd fda1 f2bd 1952 9c3c
000001f0: 73ff 623c 091d 97bc 80a4 d53d 4b28 a0bd
00000200: 8421 a3bd e9da c1bd 17c4 a4bc 6668 11bd
00000210: ec6c a63d 1178 a5bb 246b 143d e1f4 4cbd
00000220: 7141 d63d a83b d53d be0d dfbd 8d23 edbc
00000230: 7ca7 d4bd 4646 723d 3e0c d5bd fe8a 6dbd
00000240: 2485 f43d 2aa7 f5bd 3844 bf3d 1c47 453c
00000250: 6a43 c93d 0191 88bd 328f a73d e5d0 4b3c
00000260: 4928 573c a9db ae3d 3bbf febd 52e1 c8bd
00000270: 90be fa3d c2f4 99bd 7a83 b6bd 7926 14bc
00000280: 3dfe 2ebd 5a61 63bc f11c b4bd 3e42 263d
00000290: fad7 debd 90e7 173c 3540 9a3d 1b31 e33c
000002a0: 1daf af3c 9ea4 873c dced 11bd 8e82 eebc
000002b0: 631f 6cbd f064 a4bd dc90 8bbd 351c ff3d
000002c0: 4415 d6bc bad7 3e3d d7d5 b13d 6a61 b7bb
000002d0: 4d48 8dbd 922b b1bd 7696 40bd ee01 2c3d
000002e0: 0593 d0bd 5edf 8abc 872c 593d a7ad d83d
000002f0: 74ea 193d 5eb7 d63c fa1c ad3d 8d8f 5e3d
00000300: 605e 363d 7c76 1cbd a6fe d1bd 3118 cbbc
00000310: c5d3 c6bc 570f eb3b 53d2 34bc 9b31 523d
00000320: e6f0 a73d 8bda 4ebd 17e5 f2bd 46a8 82bd
00000330: ffc7 7fbd dd69 8d3d f897 a9bd 2ae6 6cbc
00000340: 0783 ffbc ad67 9dbd 9784 573d 9278 59bd
00000350: be15 a1bb abfb afbd 81e5 20bc 7b9b a53c
00000360: d7ca c2bb ed50 3bbd 361c 163d 102b 0abd
00000370: 94dc 91bd 4833 bbbd bc71 e0bc 01db edbd
00000380: 8941 d63d 8299 70bd 90ed 4cbd 4b42 543c
00000390: a4e1 143d 173c 20bc 6171 ae3d 6128 99bd
000003a0: 01ba 203d 8fa5 813a 472f d6bd 01e3 3fbd
000003b0: 24cb 0a3d d1b4 993c 630d be3d 5cdc a63d
000003c0: 4aa6 88bd dbe3 44bd 1f94 f8bc 99e6 c2bd
000003d0: 32ec febc 0907 cdbd 21b6 3b3d ea1f ba3d
000003e0: 77d9 fd3b 21ba b2bd ecb1 c0bd 25db 51bd
000003f0: af39 0e3d e95d 9e3a cff1 ac3c a16b f83d

lstm1.bias_ih_l0 f4 [256]
0.081066094 0.019881595 0.058071353 0.12179565 0.08181204 0.09430324 -0.072041355 -0.095103554
0.09531723 0.10951165 0.064470686 0.048182182 -0.03471256 0.048846014 -0.060369108 0.0016046702
0.11081074 -0.07302913 -0.10980772 -0.007729078 0.065434396 -0.10949043 0.07582525 0.00365746
0.0147299245 0.069732115 0.06279618 -0.009750341 -0.11919699 0.11350543 -0.033943783 -0.07327607
0.0407782 0.0896645 0.02345634 -0.07411014 -0.10806563 0.057296827 0.045548186 0.07658597
0.124141105 -0.07231997 0.031857017 0.12587075 -0.0116335545 -0.038990963 -0.09649273 -0.00079254154
-0.06704106 -0.08690698 -0.11129321 0.046782482 -0.024615292 0.05844454 0.06774126 -0.12074578
-0.05002715 0.109431624 -0.023021696 0.083833255 -0.11514625 0.11778811 0.055480745 -0.08459031
0.025838275 0.0767071 0.06710268 0.022047263 -0.054247595 -0.04454754 -0.08845542 0.1200412
0.019981682 0.020328261 -0.066797584 -0.10151765 -0.019208554 0.06990927 0.09597442 -0.013872235
0.04757495 -0.016011931 -0.035993926 0.12759489 0.03205429 0.12794627 -0.12780343 0.0038567842
-0.039785244 0.09262066 0.060181044 0.018105347 0.08315156 -0.0668912 -0.024597242 0.05983643
-0.07616625 0.022223055 0.04594095 -0.10465549 -0.071726896 -0.093498774 -0.11148347 -0.042853944
0.037473008 0.042138074 0.064859465 0.019302242 -0.086555526 -0.11899122 0.11098144 0.020583374
0.08959883 -0.12053346 -0.06405934 -0.005474196 0.101085 -0.097491406 -0.059154157 -0.09167003
0.057456806 0.007925017 -0.05219274 0.08306186 -0.10050097 -0.0068560564 -0.054036696 -0.025412463
0.0013224443 0.00198944 0.12386446 -0.10761335 -0.05121013 -0.014070394 -0.05147352 0.11037115
0.06129076 0.09970988 0.08526939 -0.012057034 0.07783128 -0.005046026 0.09339095 0.01297841
0.053601537 0.051305592 -0.04276417 0.11179103 0.09762144 -0.035074703 -0.03347374 -0.10542078
0.06382711 -0.094905764 -0.116058074 0.101074055 0.026541268 0.10361228 -0.09766604 -0.07770134
-0.034860283 0.08233942 -0.10112203 -0.102548145 -0.03776079 -0.06886738 0.117250845 0.062446084
-0.079847336 -0.05009547 -0.010713042 -0.08251281 -0.09764337 0.11826071 -0.0820897 0.07273552
-0.028736327 -0.090278395 -0.05571678 -0.060758185 -0.08943353 -0.07974425 -0.006594028 -0.06398705
0.1037941 -0.11914463 -0.017778635 0.08420983 -0.08879111 -0.031112073 -0.10119979 -0.12676755
0.05864106 0.029190626 0.017443145 0.096982576 -0.006383951 -0.106950395 -0.11422305 0.014902213
-0.0775598 0.11070631 -0.014516017 0.105809696 -0.022943087 -0.052653454 -0.12420562 0.12585367
-0.1146505 0.09468883 -0.05336566 -0.090389535 -0.042742535 0.06722772 0.09168504 -0.10666542
-0.09337563 0.034798037 0.056881398 -0.082859255 0.05158522 -0.011416696 -0.102610625 0.06650929
-0.10535494 -0.0016902571 -0.021536898 -0.060480565 -0.015299788 -0.10778297 0.11263108 -0.09389166
0.07684764 0.00026449107 -0.012630617 -0.006786567 -0.06080899 -0.015232533 0.09106528 -0.06219537
0.053190805 -0.10155747 -0.054332968 0.08144593 0.039255265 -0.10913628 -0.0860243 0.083381414
-0.013270512 0.114300646 -0.12443059 0.032849383 -0.13074052 0.055450983 -0.03957209 -0.009233285
00000000: fb05 a63d bade a23c 3adc 6d3d ff6f f93d
00000010: 128d a73d 0f22 c13d 6b8a 93bd a7c5 c2bd
00000020: ae35 c33d a547 e03d 3509 843d ae5a 453d
00000030: c22e 0ebd c212 483d 9945 77bd cc53 d23a
00000040: bef0 e23d 4c90 95bd dfe2 e0bd 3544 fdbb
00000050: 7802 863d 853c e0bd 454a 9b3d ffb1 6f3b
00000060: c855 713c b6cf 8e3d 499b 803d e5bf 1fbc
00000070: 8d1d f4bd 8975 e83d a308 0bbd c411 96bd
00000080: 0b07 273d 05a2 b73d 8327 c03c 0fc7 97bd
00000090: 8351 ddbd 14b0 6a3d bc90 3a3d 1bd9 9c3d
000000a0: b13d fe3d 7e1c 94bd 817c 023d 43e4 003e
000000b0: aa9a 3ebc fdb4 1fbd fb9d c5bd 90c2 4fba
000000c0: d34c 89bd 49fc b1bd b2ed e3bd fd9e 3f3d
000000d0: 02a6 c9bc 8b63 6f3d eebb 8a3d 9049 f7bd
000000e0: 45e9 4cbd b01d e03d ff97 bcbc c5b0 ab3d
000000f0: ccd1 ebbd e53a f13d c73f 633d af3d adbd
00000100: caaa d33c 9d18 9d3d 216d 893d 769c b43c
00000110: ba32 5ebd 7b77 36bd 1e28 b5bd 29d8 f53d
00000120: a0b0 a33c 7487 a63c 2ccd 88bd 7ce8 cfbd
00000130: 425b 9dbc 972c 8f3d 3d8e c43d 5f48 63bc
00000140: f3dd 423d 742b 83bc 5e6e 13bd 3ca8 023e
00000150: 5c4b 033d 5904 033e e7de 02be 1ac2 7c3b
00000160: daf5 22bd e7af bd3d 6680 763d aa51 943c
00000170: 5d4b aa3d 41fe 88bd 2880 c9bc 0b17 753d
00000180: 0dfd 9bbd 200d b63c 942c 3c3d 9e55 d6bd
00000190: 8de5 92bd 497c bfbd 7251 e4bd 9e87 2fbd
000001a0: 4c7d 193d f998 2c3d 0ad5 843d bc1f 9e3c
000001b0: 0644 b1bd abb1 f3bd 3d4a e33d 779e a83c
000001c0: 977f b73d 3fda f6bd 8b31 83bd e260 b3bb
000001d0: a705 cf3d 93a9 c7bd a14b 72bd 7fbd bbbd
000001e0: d457 6b3d eed7 013c 0ec8 55bd 561c aa3d
000001f0: 74d3 cdbd c5a8 e0bb 9555 5dbd cc2d d0bc
00000200: de55 ad3a 4461 023b a6ac fd3d 6364 dcbd
00000210: b7c1 51bd 8387 66bc e6d5 52bd 450a e23d
00000220: 050c 7b3d b234 cc3d b8a1 ae3d de8a 45bc
00000230: 0266 9f3d 2259 a5bb c143 bf3d 66a3 543c
00000240: 498d 5b3d d025 523d 7b29 2fbd b2f2 e43d
00000250: c0ed c73d 7eaa 0fbd c31b 09bd dae6 d7bd
00000260: cab7 823d f45d c2bd dbaf edbd eaff ce3d
00000270: 136d d93c ad32 d43d 2205 c8bd e121 9fbd
00000280: a8c9 0ebd 92a1 a83d 1119 cfbd c304 d2bd
00000290: 0fab 1abd 570a 8dbd 3621 f03d 77c7 7f3d
000002a0: 0087 a3bd e830 4dbd c185 2fbc 7afc a8bd
000002b0: 3ff9 c7bd ac32 f23d a51e a8bd 5cf6 943d
000002c0: 7268 ebbc e1e3 b8bd 4737 64bd 93dd 78bd
000002d0: ed28 b7bd f450 a3bd b712 d8bb a40b 83bd
000002e0: 0092 d43d 1a02 f4bd 80a4 91bc 3476 ac3d
000002f0: 1dd8 b5bd bfde febc d641 cfbd 5acf 01be
00000300: 9c31 703d 2e21 ef3c ede4 8e3c cd9e c63d
00000310: 7630 d1bb cf08 dbbd c6ed e9bd 6928 743c
00000320: acd7 9ebd fdb9 e23d 97d4 6dbc c1b2 d83d
00000330: 24f3 bbbc 26ab 57bd 845f febd c9df 003e
00000340: e2cd eabd 38ec c13d f395 5abd 261e b9bd
00000350: cc12 2fbd b0ae 893d 5ec5 bb3d 6673 dabd
00000360: b93b bfbd 6388 0e3d 78fc 683d 1db2 a9bd
00000370: 064b 533d 180d 3bbc 8525 d2bd 0636 883d
00000380: 55c4 d7bd 9e8b ddba 266e b0bc 78ba 77bd
00000390: f6ab 7abc 51bd dcbd 20ab e63d 454a c0bd
000003a0: 4c62 9d3d 64ab 8a39 a6f0 4ebc da61 debb
000003b0: d912 79bd e091 79bc 6f80 ba3d 93c0 7ebd
000003c0: 9ade 593d 5dfd cfbd 3f8c 5ebd 20cd a63d
000003d0: 21ca 203d d882 dfbd 822d b0bd e0c3 aa3d
000003e0: 906c 59bc 7516 ea3d 77d5 febd 138d 063d
000003f0: d8e0 05be 9220 633d 5816 22bd 3447 17bc

lstm1.bias_hh_l0 f4 [256]
-0.015778707 0.012992967 -0.07920722 -0.07133225 0.05101277 -0.074843384 0.042368494 -0.01766295
0.07515858 -0.037230685 0.08906325 -0.0047377446 -0.07524107 0.028662331 -0.07698833 0.037024852
-0.066160776 0.02081127 -0.028304458 -0.03035722 -0.10763286 -0.03519747 0.10062272 0.06856974
-0.052496187 0.006990187 0.030873079 0.07412809 0.08503056 -0.06322049 -0.023152588 0.098758146
0.011761076 -0.06356893 -0.057160877 -0.06492371 -0.11237586 -0.08100724 0.12591685 -0.012768039
0.08296625 -0.119879305 0.051972363 0.050035097 -0.124683954 -0.022843696 0.0338048 -0.101012744
0.04415177 0.070959546 -0.106180415 -0.052922647 0.08109333 -0.006578583 -0.07228236 0.034719422
-0.10831062 0.039778125 -0.07376862 0.045033544 -0.073500425 -0.033822168 -0.05533618 0.068535306
-0.11814338 0.07272863 0.06468027 -0.090244114 0.078723066 0.08732113 -0.07646656 0.0085927835
0.027420787 -0.023968823 0.09634055 -0.035650913 -0.04738717 0.040660765 0.06883941 0.09712401
-0.12938939 -0.02501487 -0.054187186 -0.043046866 -0.03244926 -0.06513409 -0.0789853 -0.07364749
-0.081742145 0.045399226 0.06605132 -0.05967942 0.12326818 0.053170405 -0.0866798 0.055814978
0.007632017 0.09844396 -0.005635454 -0.051136676 0.098946206 -0.11588883 0.056427877 -0.10543077
-0.031736985 -0.016832618 -0.12357484 -0.06574727 -0.05656693 -0.018258447 0.027663972 -0.088488564
0.09578208 0.015680468 0.01935361 0.02591084 -0.081253625 0.003081078 -0.10308803 0.12428617
-0.05297333 -0.11770372 0.006315978 -0.09181468 -0.11472601 -0.08246345 -0.015377215 0.04657347
-0.12491657 -0.013823194 -0.028552668 -0.051716093 0.052893955 0.082965285 0.015936678 -0.053608578
0.03631737 -0.05071613 -0.014282305 0.065094315 -0.028955018 0.12593363 0.12734568 0.030638885
-0.008145514 -0.03011827 0.05575161 0.023788411 -0.1097537 -0.11145735 0.0044005704 0.03688242
0.07595436 0.08971125 0.03914182 0.0907654 0.090954304 -0.09697793 0.1256208 -0.067375
-0.080614775 0.02142575 -0.090548865 0.0144958105 0.0034480968 0.0341442 -0.075214475 0.062230688
0.097414136 0.015400549 0.052468657 -0.07569398 0.050012924 -0.06682925 -0.043354217 -0.02304647
0.006471586 0.117695786 0.019353325 0.1202256 0.024948532 -0.042201094 -0.04224673 -0.01038645
-0.0798862 0.048773535 0.11436552 0.07376845 0.070152216 0.11883048 0.016873982 -0.013781337
-0.042839766 -0.10737756 -0.07750331 -0.008628472 -0.09167198 -0.088847585 0.028036315 -0.07505881
-0.10735862 -0.09252458 0.048994765 0.015454897 -0.12158527 -0.09566546 0.049558464 0.123730645
0.036685664 0.06921549 -0.01063256 0.054735243 0.06358363 -0.060413975 0.05970153 -0.03596174
0.04428272 -0.12542222 -0.07052716 -0.07596562 -0.051079683 0.12065487 -0.054968324 0.029502572
-0.012164999 0.025123594 -0.050360255 -0.075351514 -0.096717335 0.01395629 -0.112825155 -0.11634182
0.11156008 0.048336983 -0.027572189 -0.055858564 0.10312869 0.0020123122 -0.10306456 0.08641199
0.11250287 0.022080092 0.09736479 -0.10519743 -0.0030182973 0.1269257 -0.12142271 -0.11589059
0.0063864896 0.031532094 0.030257216 -0.036036298 0.09726098 0.09389833 -0.12070486 -0.11477599
00000000: 5942 81bc 74e0 543c 6537 a2bd a516 92bd
00000010: c4f2 503d 7d47 99bd 968a 2d3d e4b1 90bc
00000020: beec 993d 347f 18bd cb66 b63d 153f 9bbb
00000030: fd17 9abd 44cd ea3c 0fac 9dbd 5fa7 173d
00000040: 4d7f 87bd 667c aa3c c0de e7bc b4af f8bc
00000050: 9e6e dcbd 392b 10bd 4913 ce3d 4b6e 8c3d
00000060: 3e06 57bd f00d e53b 8ae9 fc3c 78d0 973d
00000070: 8124 ae3d bf79 81bd 7faa bdbc b641 ca3d
00000080: 87b1 403c 6d30 82bd 8621 6abd b9f6 84bd
00000090: 5125 e6bd 20e7 a5bd 59f0 003e 0931 51bc
000000a0: 36ea a93d 4883 f5bd f9e0 543d 9af1 4c3d
000000b0: 4d5a ffbd b422 bbbc e776 0a3d c5df cebd
000000c0: 7dd8 343d 3d53 913d 1e75 d9bd 6bc5 58bd
000000d0: 4314 a63d 2791 d7bb c608 94bd f435 0e3d
000000e0: f5d1 ddbd 63ee 223d 0114 97bd 1875 383d
000000f0: 6487 96bd 1d89 0abd 31a8 62bd 3d5c 8c3d
00000100: 28f5 f1bd bff2 943d 1777 843d e8d1 b8bd
00000110: 8f39 a13d 6cd5 b23d 809a 9cbd bfc8 0c3c
00000120: 8fa1 e03c 445a c4bc 324e c53d b106 12bd
00000130: 0d19 42bd e78b 263d adfb 8c3d f4e8 c63d
00000140: a77e 04be fceb ccbc 62f3 5dbd e951 30bd
00000150: 84e9 04bd 0665 85bd 0cc3 a1bd 7fd4 96bd
00000160: 6d68 a7bd 8af4 393d ea45 873d 6872 74bd
00000170: 0774 fc3d 36c9 593d 2e85 b1bd 3f9e 643d
00000180: 0016 fa3b fd9c c93d 9da9 b8bb b174 51bd
00000190: 4fa4 ca3d 1f57 edbd eb20 673d 16ec d7bd
000001a0: a4fe 01bd 8fe4 89bc ce14 fdbd 81a6 86bd
000001b0: bab2 67bd bd92 95bc 8e9f e23c 7e39 b5bd
000001c0: 6529 c43d 5374 803c 768b 9e3c f842 d43c
000001d0: 4d68 a6bd e9eb 493b d11f d3bd bf89 fe3d
000001e0: 90fa 58bd a60e f1bd 43f6 ce3b 5609 bcbd
000001f0: 78f5 eabd 99e2 a8bd b7f0 7bbc d3c3 3e3d
00000200: 42d4 ffbd ae7a 62bc 49e7 e9bc 41d4 53bd
00000210: 55a7 583d b4e9 a93d a38d 823c ab94 5bbd
00000220: 86c1 143d b7bb 4fbd 5400 6abc 2b50 853d
00000230: 1333 edbc bff4 003e e866 023e 66fe fa3c
00000240: c374 05bc 97ba f6bc cd5b 643d eadf c23c
00000250: 8cc6 e0bd c043 e4bd a932 903b 0512 173d
00000260: f68d 9b3d 88ba b73d 2c53 203d 36e3 b93d
00000270: 4046 ba3d 5d9c c6bd bda2 003e e7fb 89bd
00000280: 5c19 a5bd 0e85 af3c af71 b9bd d67f 6d3c
00000290: 77f9 613b cada 0b3d 0c0a 9abd 9be5 7e3d
000002a0: 1081 c73d 9652 7c3c 60e9 563d 7205 9bbd
000002b0: 5ada 4c3d c6dd 88bd 3194 31bd f3cb bcbc
000002c0: 990f d43b 7d0a f13d dd8a 9e3c d738 f63d
000002d0: dd60 cc3c 0edb 2cbd e80a 2dbd ee2b 2abc
000002e0: 609b a3bd c2c6 473d 7838 ea3d ea13 973d
000002f0: f7ab 8f3d 655d f33d 4e3b 8a3c 1ecb 61bc
00000300: c078 2fbd c4e8 dbbd 0eba 9ebd 6f5e 0dbc
00000310: 85be bbbd b9f5 b5bd 6aac e53c 6fb8 99bd
00000320: d6de dbbd 877d bdbd bcae 483d 8936 7d3c
00000330: b301 f9bd 41ec c3bd d1fd 4a3d 7e66 fd3d
00000340: b543 163d dac0 8d3d 3034 2ebc 1032 603d
00000350: 2238 823d a574 77bd 9789 743d 9e4c 13bd
00000360: cc61 353d af6e 00be 8b70 90bd dd93 9bbd
00000370: ee38 51bd e719 f73d 7726 61bd 61af f13c
00000380: b44f 47bc ffcf cd3c 8e46 4ebd e551 9abd
00000390: bd13 c6bd eca8 643c e010 e7bd 9f44 eebd
000003a0: 9c79 e43d 00fd 453d 12df e1bc f3cb 64bd
000003b0: 2235 d33d ffe0 033b 8313 d3bd c5f8 b03d
000003c0: e867 e63d 4fe1 b43c 3167 c73d c071 d7bd
000003d0: a0ce 45bb d0f8 013e 78ac f8bd 0c58 edbd
000003e0: c245 d13b cc27 013d fbdd f73c cc9a 13bd
000003f0: c430 c73d c54d c03d 1c34 f7bd ad0f ebbd

ln1.weight f4 [64]
0.99877656 0.99916816 1.0033717 0.998065 0.9956748 0.99792427 1.0080097 0.9935395
0.99300563 0.99375314 1.0018909 0.9994577 0.99718076 1.0048215 0.9975424 1.0063493
0.9943245 1.0068607 0.99535346 1.0044376 1.0014174 1.0066794 0.9948207 0.99427307
1.0014234 0.9927655 0.9972357 0.9981316 1.0007126 1.0051441 1.0057497 0.995685
0.99908304 1.0046579 1.0012707 0.9968821 1.0050918 0.9990692 1.0023652 1.0040808
1.0002593 0.99614954 0.9925863 1.0011014 0.99218905 1.0074544 1.0000924 0.9959234
0.9950608 1.0002561 1.0067244 0.99447936 0.9935843 1.003461 1.0019765 1.0014524
0.99451345 0.99753475 0.9973763 0.9982742 0.9947349 1.0016552 0.99980235 1.0069402
00000000: d2af 7f3f 7cc9 7f3f 7c6e 803f 3081 7f3f
00000010: 8be4 7e3f f777 7f3f 7606 813f 9b58 7e3f
00000020: 9e35 7e3f 9b66 7e3f f63d 803f 76dc 7f3f
00000030: 3d47 7f3f fe9d 803f f05e 7f3f 0ed0 803f
00000040: 0d8c 7e3f d0e0 803f 7ccf 7e3f 6991 803f
00000050: 722e 803f dfda 803f 92ac 7e3f ae88 7e3f
00000060: a42e 803f e125 7e3f d74a 7f3f 8d85 7f3f
00000070: 5a17 803f 90a8 803f 68bc 803f 36e5 7e3f
00000080: e8c3 7f3f a198 803f a329 803f aa33 7f3f
00000090: d9a6 803f 00c3 7f3f 814d 803f b885 803f
000000a0: 7f08 803f a803 7f3f 231a 7e3f 1724 803f
000000b0: 1a00 7e3f 44f4 803f 0703 803f d6f4 7e3f
000000c0: 4ebc 7e3f 6408 803f 58dc 803f 3396 7e3f
000000d0: 8a5b 7e3f 6971 803f c440 803f 982f 803f
000000e0: 6f98 7e3f 705e 7f3f 0e54 7f3f e68e 7f3f
000000f0: f2a6 7e3f 3d36 803f 0cf3 7f3f 6be3 803f

ln1.bias f4 [64]
0.00040343014 0.0038267737 -0.0008101127 0.0021091916 -0.00444961 -0.0032689408 0.0029468602 -0.0068235034
-0.0048172 0.005199707 -0.0075051207 -0.0056380574 -0.0030721845 0.00436272 -0.00044886445 -0.006119271
0.0039593135 0.0001995712 0.0068874382 0.004366706 -0.004068873 -0.0038546396 0.003042776 0.0067266375
0.0013441739 -0.0021156452 0.00068531616 -0.000792435 0.00058903947 -0.004893536 0.006728251 0.0005255948
-0.0017684861 0.005018059 -0.0064178663 -0.00034927204 -0.0015172001 -0.0011196209 -0.0030481804 0.002572388
0.004304391 0.003933555 -0.0060796146 -0.0036108515 0.0029674596 0.006368306 0.0009395076 -0.00091060763
0.007838696 0.002303293 0.00036611952 -0.003883152 -0.004911422 -0.0017267951 0.0021345576 0.0009641074
0.0037030422 0.0013277606 0.0008246135 0.0007108707 -0.0064940155 -0.0043451786 0.0031232273 -0.0010808298
00000000: 7a83 d339 9cca 7a3b be5d 54ba 5d3a 0a3b
00000010: 09ce 91bb ba3b 56bb 1c20 413b b297 dfbb
00000020: 9ad9 9dbb 4e62 aa3b 84ed f5bb 74bf b8bb
00000030: b456 49bb 26f5 8e3b 9155 ebb9 2a84 c8bb
00000040: 21bd 813b fc43 5139 05b0 e13b 9616 8f3b
00000050: 2e54 85bb 1f9e 7cbb 4f69 473b 206b dc3b
00000060: fe2e b03a a3a6 0abb caa6 333a 6abb 4fba
00000070: c569 1a3a f559 a0bb a978 dc3b 12c8 093a
00000080: 8ccc e7ba 886e a43b f74c d2bb 801e b7b9
00000090: cadc c6ba 3ec0 92ba fbc3 47bb 8295 283b
000000a0: d90b 8d3b 0de5 803b 8137 c7bb 09a4 6cbb
000000b0: b679 423b 39ad d03b 4a49 763a d8b5 6eba
000000c0: e06d 003c d8f2 163b bbf3 bf39 7b7c 7ebb
000000d0: feef a0bb a155 e2ba efe3 0b3b 27bc 7c3a
000000e0: bdae 723b 4108 ae3a e02a 583a ba59 3a3a
000000f0: c0cb d4bb 0062 8ebb 0faf 4c3b a1aa 8dba

lstm2.weight_ih_l0 f4 [128, 64]
0.14772628 -0.0718315 0.026889239 0.064317934 0.04334906 -0.098012604 -0.121042654 -0.13630159
0.06900605 -0.017159497 -0.10399897 -0.15001899 0.09475337 0.020004774 -0.17440605 -0.016080258
-0.05066328 -0.0007430022 0.045057785 0.056263655 -0.16608496 0.027082916 0.09322143 -0.04326659
0.12915185 0.17707442 0.05146755 0.16293323 0.069102325 -0.11406433 0.10605308 -0.076026276
-0.12109707 -0.15972349 0.019786414 0.1591775 -0.061588112 0.02393151 0.05165504 0.11004884
0.14908807 0.09214947 -0.06849008 0.0008803373 -0.16619232 -0.14027953 -0.08919026 0.10062581
0.02962703 -0.0004284159 0.11664548 -0.016024547 0.13806444 0.17149505 -0.1457957 0.14540876
0.10657117 -0.0133136045 0.055468477 -0.12288809 -0.05321124 -0.096975535 -0.12469475 -0.023269044
-0.17539807 -0.03178031 0.11043409 -0.10722566 -0.05823777 0.0052050403 -0.08533837 0.01702616
-0.16217123 0.054428898 0.16850853 0.008819855 0.17028165 -0.16177428 -0.0948879 -0.04967029
0.15362412 -0.15651514 -0.025120758 -0.16031854 0.031890426 -0.14983098 -0.14571849 -0.10762057
-0.07254095 0.11617791 0.03489004 -0.16290739 0.16496536 0.0013113274 0.04847458 -0.08809837
-0.082272924 -0.1335644 -0.13767725 -0.09638453 0.091229774 -0.06658262 -0.15570384 0.04732383
-0.051742885 -0.12037588 0.14165063 -0.16012953 -0.16668412 0.10619956 0.102308676 -0.068183035
0.12990691 -0.12319306 -0.08323661 -0.020970387 -0.066411935 0.11326844 -0.1674011 0.13567138
0.109447 -0.09627501 -0.0960937 0.024352381 -0.017463416 -0.1619092 0.14230451 0.13387762
0.13528807 0.0808543 -0.11914388 -0.09329858 -0.06726745 0.05477288 0.10290313 -0.007992938
-0.16952391 -0.1168989 -0.09214951 -0.122988395 0.09543069 0.015989743 -0.12131812 -0.11207063
-0.13764516 -0.122263424 0.059460867 -0.08860882 -0.15794814 0.0060038017 -0.012933285 -0.15256225
0.053628605 0.011583361 0.018480968 0.083925106 -0.088323474 -0.16169083 0.12216111 0.15433978
0.15706284 0.094138026 0.16806176 0.05772324 -0.14720738 0.046873987 -0.12769288 -0.16589104
0.0763507 -0.10053428 -0.12267938 0.15943974 0.04847087 0.068005554 -0.057429194 0.06663349
-0.009729168 -0.047780417 -0.026641473 0.12419541 -0.11397104 -0.052136976 0.12932567 -0.010800604
0.07955234 -0.07652775 0.12707312 -0.12411978 -0.08761122 -0.15334591 -0.14240544 0.11808629
0.11508442 0.08859427 0.08390739 0.12461901 0.11121554 0.09837458 -0.088594474 0.14027488
0.11521693 0.057952266 -0.027199253 0.15442905 -0.017800806 -0.16535726 -0.06996497 -0.009591733
0.07773867 0.055508245 0.026514726 0.14397292 0.10833316 -0.09743411 -0.05768774 -0.015661567
-0.011168122 -0.12674639 -0.052201122 0.12856327 -0.17699486 0.03266103 0.03445674 -0.052619256
-0.05452716 -0.080584675 -0.15728764 -0.15593208 0.0974227 0.000603276 -0.010223383 -0.036353365
-0.17105289 -0.03441258 -0.16782118 0.087073304 -0.065467976 -0.06480373 0.06788294 -0.12740444
-0.116020314 -0.10536879 -0.0433112 -0.11547821 -0.17205484 0.08473682 0.08941271 -0.07117588
-0.13138227 0.12535895 -0.100440644 -0.14181107 -0.16495033 0.051663354 0.03257358 0.1620928
00000000: 8f45 173e 651c 93bd d246 dc3c 1fb9 833d
00000010: c98e 313d d5ba c8bd 36e5 f7bd a592 0bbe
00000020: 0b53 8d3d 1392 8cbc 69fd d4bd 949e 19be
00000030: 0e0e c23d 0de1 a33c 8097 32be bfba 83bc
00000040: 4d84 4fbd 09c6 42ba 838e 383d b874 663d
00000050: 2d12 2abe fedc dd3c e1ea be3d 4f38 31bd
00000060: 6240 043e ff52 353e a3cf 523d f8d7 263e
00000070: 8585 8d3d 8f9a e9bd 5b32 d93d aab3 9bbd
00000080: be01 f8bd 8e8e 23be 1e17 a23c 6dff 223e
00000090: d143 7cbd 040c c43c 3c94 533d 4961 e13d
000000a0: 8baa 183e dcb8 bc3d 8744 8cbd 70c6 663a
000000b0: 522e 2abe 70a5 0fbe 62a9 b6bd e814 ce3d
000000c0: 63b4 f23c 029d e0b9 d3e3 ee3d e945 83bc
000000d0: c460 0d3e 669c 2f3e 784b 15be 09e6 143e
000000e0: fc41 da3d 4e21 5abc ea32 633d c0ac fbbd
000000f0: 07f4 59bd 1c9b c6bd f65f ffbd b99e bebc
00000100: 8d9b 33be 122c 02bd 452b e23d 2099 dbbd
00000110: ba8a 6ebd 0b8f aa3b e2c5 aebd 727a 8b3c
00000120: 3710 26be d6f0 5e3d 808d 2c3e 2781 103c
00000130: 505e 2e3e 28a8 25be 9654 c2bd 1373 4bbd
00000140: a44f 1d3e 8145 20be 0cca cdbc 8b2a 24be
00000150: 899f 023d 4b6d 19be 3a37 15be 2c68 dcbd
00000160: 5990 94bd afee ed3d dce8 0e3d 32d1 26be
00000170: aeec 283e d9e0 ab3a 488d 463d eb6c b4bd
00000180: b57e a8bd 1bc5 08be 44fb 0cbe 4165 c5bd
00000190: add6 ba3d 785c 88bd d470 1fbe a2d6 413d
000001a0: 59f0 53bd a187 f6bd dd0c 113e fff8 23be
000001b0: 3eaf 2abe 287f d93d 3687 d13d 8ca3 8bbd
000001c0: 5106 053e a54c fcbd f577 aabd 17ca abbc
000001d0: fb02 88bd 49f9 e73d 326b 2bbe 70ed 0a3e
000001e0: c025 e03d d52b c5bd c6cc c4bd a57e c73c
000001f0: 700f 8fbc 86cb 25be 46b8 113e 3717 093e
00000200: f588 0a3e f096 a53d b501 f4bd 5313 bfbd
00000210: 84c3 89bd 8759 603d e0be d23d d0f4 02bc
00000220: ad97 2dbe b168 efbd e2b8 bcbd 57e1 fbbd
00000230: 2a71 c33d ecfc 823c a275 f8bd 4985 e5bd
00000240: daf2 0cbe 3f65 fabd 3d8d 733d 8b78 b5bd
00000250: 28bd 21be 8abb c43b 21e6 53bc 4739 1cbe
00000260: aba9 5b3d 23c8 3d3c 6665 973c ede0 ab3d
00000270: f0e2 b4bd 4892 25be 9b2f fa3d 3f0b 1e3e
00000280: 15d5 203e 70cb c03d 6218 2c3e 346f 6c3d
00000290: 88bd 16be f0fe 3f3d ecc1 02be 57df 29be
000002a0: c15d 9c3d ebe4 cdbd 543f fbbd 2c44 233e
000002b0: 6489 463d 7f46 8b3d e03a 6bbd 2477 883d
000002c0: 1767 1fbc 66b5 43bd 383f dabc 2a5a fe3d
000002d0: a669 e9bd 958d 55bd f36d 043e 04f5 30bc
000002e0: 56ec a23d 95ba 9cbd 751f 023e 8332 febd
000002f0: 836d b3bd b606 1dbe bbd2 11be 3ad7 f13d
00000300: 61b1 eb3d ea70 b53d a3d7 ab3d 4038 ff3d
00000310: f9c4 e33d 9d78 c93d 0571 b5bd 38a4 0f3e
00000320: dbf6 eb3d 5b5f 6d3d f8d0 debc a622 1e3e
00000330: ffd2 91bc 6a53 29be cb49 8fbd a526 1dbc
00000340: 7435 9f3d 9d5c 633d 6935 d93c a36d 133e
00000350: c7dd dd3d 898b c7bd fb49 6cbd b04c 80bc
00000360: 80fa 36bc cec9 01be d8d0 55bd 17a6 033e
00000370: 243e 35be 92c7 053d 8322 0d3d 4a87 57bd
00000380: df57 5fbd 9409 a5bd 0310 21be a9ac 1fbe
00000390: 8d85 c73d 2b25 1e3a fa7f 27bc 44e7 14bd
000003a0: 7d28 2fbe 35f4 0cbd 51d9 2bbe 7d53 b23d
000003b0: 1314 86bd d1b7 84bd 3606 8b3d 4f76 02be
000003c0: 0f9c edbd 98cb d7bd 1667 31bd d77f ecbd
000003d0: 252f 30be 7f8a ad3d 031e b73d a9c4 91bd
000003e0: 1389 06be 195e 003e d3b3 cdbd ec36 11be
000003f0: bde8 28be f49c 533d e06b 053d a8fb 253e

lstm2.weight_hh_l0 f4 [128, 32]
0.11109475 0.08423629 -0.02857297 -0.17841625 0.06793844 0.011529262 -0.07923412 -0.15669338
-0.1263821 -0.103658825 -0.030951733 -0.09861662 -0.0963206 -0.053891905 -0.0004072531 0.043818634
0.124213524 0.08778864 -0.09205794 0.09838184 0.116266385 0.1482085 0.04534354 0.16107248
0.068343274 -0.028901683 -0.16436236 -0.044305764 0.06948597 0.09800978 -0.10539902 -0.0040610447
0.14537153 -0.12721677 0.07445357 0.03517217 0.027806347 0.091536075 0.10123343 -0.08391033
0.07946581 -0.1666818 0.07957103 0.014237519 -0.017054584 0.1258287 0.077377096 -0.038771767
-0.037860986 0.10777817 0.09744861 -0.05887018 0.05603778 -0.15333727 0.14631861 -0.07451112
-0.121170945 0.13466455 -0.073046096 0.1545727 0.10896604 -0.10895588 0.020457258 0.14734447
-0.119631134 0.010127207 -0.0070450087 -0.15160328 0.050732482 0.15168595 0.12771478 0.080804974
0.020742636 -0.055683307 0.0401922 0.0031168044 0.10490486 -0.11388959 -0.034758437 -0.12648955
0.1262697 0.109820105 -0.15310995 0.019458974 0.12695536 -0.0052855094 0.17421469 -0.035061285
0.14013638 0.00012779867 0.116895676 -0.13393927 0.16401055 0.017224425 0.11069312 0.069267035
0.085615195 -0.05220387 -0.17306194 0.10436549 -0.12638853 0.066554 0.12528765 -0.047864478
0.16638464 -0.084862955 -0.1590934 -0.13639885 -0.05401517 0.05086776 -0.102498755 -0.004013053
-0.008297584 0.14355205 -0.1122054 0.031225653 0.1496078 -0.04298789 -0.0027289125 0.1438629
0.119230196 0.090224385 -0.15701573 -0.022632565 -0.16922879 -0.0832546 -0.059165206 0.03988538
0.16808948 0.13701098 -0.14489423 0.07007868 -0.09294721 -0.13475074 0.12843165 0.16065618
-0.120239936 -0.1687179 0.08483458 0.13982642 0.07758599 0.09784061 -0.13931198 0.08829443
-0.038778227 -0.038681775 -0.16525872 0.14303282 0.123208456 -0.08352203 0.07929961 0.11049751
0.011543235 -0.12614207 0.010791684 -0.05059177 0.12841679 -0.06591574 -0.15272713 -0.17443776
-0.071899384 -0.10173522 -0.0707538 -0.060508553 -0.14688878 -0.08433804 -0.0041522076 0.09440267
0.14379606 0.0035639582 0.00034364074 -0.06472155 0.10185293 0.11093015 -0.10837998 -0.086972706
-0.09946519 -0.056672513 -0.0641439 0.08344086 -0.070116594 -0.1383577 0.0010982981 0.033124242
0.10169085 -0.13443206 0.004559744 0.15372473 0.15476678 0.13516979 -0.02106859 -0.04564532
0.15847912 0.15531254 0.10744327 0.045389332 0.018856727 -0.086519964 0.13414878 -0.014299125
-0.14851053 0.037093878 0.07618568 0.0865228 -0.0038517276 0.044232816 0.040446322 -0.033133224
-0.1321715 0.17408669 0.07482227 0.041790385 -0.13671269 0.039744347 0.017462548 0.10307233
0.16907127 -0.049717687 -0.16760883 -0.14111435 0.11451743 0.022598855 0.10450933 -0.086924694
0.06732488 -0.009423452 -0.03823038 0.03477524 0.018032318 -0.009131274 -0.06337094 -0.08756638
-0.049930055 -0.12050634 -0.06872341 -0.008770272 -0.08447771 0.040340785 0.103103764 0.03640812
-0.06011336 0.008297159 -0.09672182 0.13529328 0.13899712 0.14987306 -0.04788761 0.12534302
0.031886727 -0.031644285 0.12430037 -0.10564438 -0.15353228 0.15682645 0.076848805 0.10456506
00000000: a585 e33d 1384 ac3d dc11 eabc c0b2 36be
00000010: 4f23 8b3d 3be5 3c3c 8045 a2bd 3b74 20be
00000020: 4f6a 01be 144b d4bd 7d8e fdbc 83f7 c9bd
00000030: bc43 c5bd c2bd 5cbd 9684 d5b9 2b7b 333d
00000040: a963 fe3d 88ca b33d e088 bcbd 6b7c c93d
00000050: 121d ee3d f8c3 173e 26ba 393d 2ff0 243e
00000060: 8ff7 8b3d 39c3 ecbc 9b4e 28be f679 35bd
00000070: a94e 8e3d 5ab9 c83d 71db d7bd 8312 85bb
00000080: 46dc 143e 1d45 02be 1d7b 983d b110 103d
00000090: 23ca e33c 4477 bb3d 7953 cf3d 2ed9 abbd
000000a0: f8be a23d a2ae 2abe 23f6 a23d 7c44 693c
000000b0: 0eb6 8bbc 3dd9 003e e277 9e3d 25cf 1ebd
000000c0: 1f14 1bbd cdba dc3d 2393 c73d dc21 71bd
000000d0: df87 653d 7204 1dbe 8cd4 153e 4999 98bd
000000e0: 7928 f8bd 81e5 093e 3199 95bd 4e48 1e3e
000000f0: 9629 df3d 4324 dfbd fb95 a73c 78e1 163e
00000100: 2b01 f5bd 96ec 253c d1d9 e6bb e43d 1bbe
00000110: ddcc 4f3d 9053 1b3e aac7 023e 147d a53d
00000120: 76ec a93c 2e14 64bd 94a0 243d 4d43 4c3b
00000130: 5cd8 d63d f23e e9bd dd5e 0ebd 7a86 01be
00000140: d84c 013e 5de9 e03d dbc8 1cbe 6d68 9f3c
00000150: 9600 023e 1132 adbb 5665 323e 6c9c 0fbd
00000160: e97f 0f3e b201 0639 0067 ef3d 6027 09be
00000170: 62f2 273e 3d1a 8d3c 13b3 e23d e0db 8d3d
00000180: 0557 af3d bad3 55bd 2637 31be 93bd d53d
00000190: ff6b 01be 774d 883d 684b 003e 8b0d 44bd
000001a0: bc60 2a3e a1cc adbd 61e9 22be 24ac 0bbe
000001b0: 033f 5dbd b65a 503d deea d1bd ee7f 83bb
000001c0: 97f2 07bc 4fff 123e f2cb e5bd f1cc ff3c
000001d0: ca32 193e 1214 30bd 8ed7 32bb cc50 133e
000001e0: f62e f43d 90c7 b83d bbc8 20be ee67 b9bc
000001f0: 504a 2dbe 6381 aabd 3757 72bd da5e 233d
00000200: a61f 2c3e 9b4c 0c3e 275f 14be 6985 8f3d
00000210: 1b5b bebd 19fc 09be 9683 033e 0e83 243e
00000220: 5b40 f6bd 63c4 2cbe c1bd ad3d a82e 0f3e
00000230: 67e5 9e3d a860 c83d cda7 0ebe b6d3 b43d
00000240: ebd5 1ebd c870 1ebd 9539 29be 3277 123e
00000250: b754 fc3d 990d abbd d567 a23d 854c e23d
00000260: d61f 3d3c 632b 01be 9acf 303c 5139 4fbd
00000270: b17f 033e d5fe 86bd 8064 1cbe d09f 32be
00000280: fc3f 93bd 8e5a d0bd 5ee7 90bd d1d7 77bd
00000290: 036a 16be 6cb9 acbd 3e0f 88bb 3056 c13d
000002a0: 463f 133e 4c91 693b ae2a b439 bb8c 84bd
000002b0: 4598 d03d 592f e33d 53f6 ddbd bf1e b2bd
000002c0: 68b4 cbbd 7021 68bd e15d 83bd 0be3 aa3d
000002d0: 4a99 8fbd a4ad 0dbe c5f4 8f3a 49ad 073d
000002e0: 4b43 d03d 8fa8 09be e869 953b 046a 1d3e
000002f0: 2f7b 1e3e f369 0a3e 0998 acbc 96f6 3abd
00000300: 5a48 223e 400a 1f3e 380b dc3d 2aea 393d
00000310: 6c79 9a3c 6131 b1bd 4c5e 093e e146 6abc
00000320: 2513 18be c0ef 173d 3d07 9c3d de32 b13d
00000330: 446d 7cbb 782d 353d 0bab 253d b4b6 07bd
00000340: f757 07be c843 323e 6b3c 993d 652c 2b3d
00000350: 69fe 0bbe f8ca 223d 9e0d 8f3c 9617 d33d
00000360: 0521 2d3e c6a4 4bbd a6a1 2bbe 4880 10be
00000370: 1d88 ea3d 3c21 b93c fd08 d63d 9305 b2bd
00000380: a0e1 893d d364 1abc 7597 1cbd 7b70 0e3d
00000390: 83b8 933c 579b 15bc a0c8 81bd 0156 b3bd
000003a0: 7583 4cbd 07cc f6bd dcbe 8cbd 30b1 0fbc
000003b0: a602 adbd 613c 253d 1128 d33d ae20 153d
000003c0: 6d39 76bd cff0 073c 1716 c6bd 528a 0a3e
000003d0: 4355 0e3e 5378 193e cc25 44bd ec59 003e
000003e0: a89b 023d 709d 01bd 3191 fe3d 155c d8bd
000003f0: 9137 1dbe 1d97 203e e862 9d3d 3526 d63d

lstm2.bias_ih_l0 f4 [128]
0.13002303 -0.06242826 0.14929183 -0.065291926 0.04561451 0.04288859 0.108163975 0.026549105
-0.0043832646 -0.02763779 -0.066945605 0.11935517 0.11790632 0.07799929 -0.07628053 0.03664186
-0.05922573 0.0776186 0.090739615 0.1636368 0.12583421 -0.15270332 -0.10938874 0.07227878
0.15086445 -0.14028968 -0.09416707 0.07588111 -0.073660664 0.12704171 -0.06940785 0.109004304
0.057597063 -0.04547938 -0.116453186 0.11166699 -0.15622269 -0.091062345 -0.15731178 0.17337337
0.010055719 -0.030899337 0.054952256 0.15569612 0.08671321 0.14840409 -0.112643234 -0.0920775
0.11964198 0.091713876 -0.010927718 0.14196143 -0.15088105 0.09945766 -0.12997599 -0.110551454
0.028666975 0.12967844 0.111205116 0.022337114 0.08520905 -0.094750434 0.15705827 0.10107847
0.05948165 0.16854943 -0.05422263 -0.08581505 -0.110081606 0.079024054 -0.1442797 -0.0019827946
0.15322962 -0.0870866 -0.041418307 0.038991183 -0.112728275 -0.036905434 0.07031645 0.0943406
-0.16817513 -0.17457084 0.07831262 0.0608153 -0.03789093 -0.13292825 0.13882145 0.14581281
-0.07565996 0.12101965 0.13386211 0.036696654 -0.011499806 -0.087067805 0.17727676 0.11179173
0.09659128 0.15613955 -0.02465053 0.0029798513 0.13922021 0.13850132 0.055010017 0.023970157
-0.02748952 0.006605019 0.10731031 0.12450905 -0.03230903 -0.11589391 0.009368526 -0.022967372
0.17005397 -0.1483475 0.06571611 0.10488266 0.09426193 0.03909709 -0.040853992 -0.14147334
0.08357041 -0.15920943 -0.1676031 -0.12040658 0.08430369 0.15631233 0.024571193 -0.08567712
00000000: c224 053e c6b4 7fbd f5df 183e c6b7 85bd
00000010: 48d6 3a3d f2ab 2f3d 1385 dd3d 827d d93c
00000020: 7da1 8fbb a668 e2bc c71a 89bd 7c70 f43d
00000030: de78 f13d 17be 9f3d f738 9cbd c615 163d
00000040: ae96 72bd 80f6 9e3d b1d5 b93d 6890 273e
00000050: afda 003e 425e 1cbe 3407 e0bd e606 943d
00000060: 367c 1a3e 19a8 0fbe aada c0bd 8e67 9b3d
00000070: 67db 96bd 3917 023e b425 8ebd a63d df3d
00000080: e6ea 6b3d 9648 3abd 027f eebd aab1 e43d
00000090: d7f8 1fbe e57e babd 5716 21be ca88 313e
000000a0: bec0 243c 9b20 fdbc 9e15 613d ce6e 1f3e
000000b0: b296 b13d 3ef7 173e 7fb1 e6bd 2193 bcbd
000000c0: db06 f53d 7cd4 bb3d 2c0a 33bc 565e 113e
000000d0: 9080 1abe 75b0 cb3d 6d18 05be cd68 e2bd
000000e0: 01d7 ea3c 6dca 043e 82bf e33d 53fc b63c
000000f0: 1582 ae3d 840c c2bd e2d3 203e 3b02 cf3d
00000100: 08a3 733d 3998 2c3e 8c18 5ebd cdbf afbd
00000110: 7772 e1bd 5dd7 a13d 0fbe 13be c6f1 01bb
00000120: 3ae8 1c3e 765a b2bd 3ea6 29bd 38b5 1f3d
00000130: 15de e6bd 272a 17bd 1202 903d a535 c13d
00000140: 1a36 2cbe b3c2 32be 5e62 a03d 7719 793d
00000150: 8533 1bbd 581e 08be 3627 0e3e f44f 153e
00000160: 9cf3 9abd 26d9 f73d 2613 093e 3b4f 163d
00000170: af69 3cbc 9b50 b2bd 0a88 353e 10f3 e43d
00000180: a6d1 c53d 0ce3 1f3e e9ef c9bc 9c49 433b
00000190: be8f 0e3e 4ad3 0d3e 2f52 613d 105d c43c
000001a0: b431 e1bc ea6e d83b 82c5 db3d 9afe fe3d
000001b0: 7956 04bd c959 edbd 727e 193c 1226 bcbc
000001c0: a122 2e3e 68e8 17be 2b96 863d b8cc d63d
000001d0: 660c c13d 4524 203d 8456 27bd 63de 10be
000001e0: f726 ab3d cc07 23be 26a0 2bbe ba97 f6bd
000001f0: 6aa7 ac3d 5710 203e 8749 c93c 7c77 afbd

lstm2.bias_hh_l0 f4 [128]
-0.14639378 -0.063563704 -0.1500402 -0.03956805 -0.07042504 -0.11634054 -0.1748038 -0.023297202
-0.110579744 0.02926578 0.026682947 -0.08857715 0.0013800827 -0.051939223 -0.047735903 0.15063861
0.16151936 -0.12853143 -0.122082256 0.05780821 -0.0736721 0.08741965 0.0716468 0.10714723
-0.029004024 -0.04752657 0.075650096 -0.1640264 0.12334352 -0.14222068 -0.031873997 -0.07273845
-0.017936483 0.16593386 -0.16488835 -0.17343864 0.07785245 0.02137084 -0.15665232 -0.09967986
0.118296385 0.031847388 -0.12414095 0.13007942 0.08307125 0.06706673 -0.060467966 0.039194513
0.03257232 -0.009474207 -0.17273927 0.07542502 -0.030675476 0.1299115 -0.063403085 0.031482533
-0.09854701 -0.09666363 0.15585746 -0.16768412 0.119378366 -0.0882582 -0.16157916 -0.099991605
-0.050501116 0.109983146 0.14971636 0.17395845 -0.092054516 0.068062775 -1.8163119e-06 -0.042325284
-0.016486999 -0.08460784 -0.12662941 0.11780359 -0.12599207 0.08448322 -0.103629924 -0.044489115
-0.05636314 0.14813212 -0.15738823 -0.0014277705 -0.08574103 0.13881466 0.0040696184 0.0012496964
-0.11806771 0.1369142 0.10919635 0.122245796 -0.100452274 -0.14006439 0.035880066 -0.055376634
-0.050796047 0.11061924 -0.009144323 0.09961171 -0.14668168 0.04777888 -0.14440614 -0.054594815
0.07622448 -0.11381337 0.098729774 0.10266741 0.058968455 -0.028979056 0.026136965 0.024163391
-0.066676654 -0.137848 -0.01607418 0.09501532 -0.0804618 0.06679198 -0.059601083 -0.057436038
-0.12844406 -0.16802137 -0.06946229 -0.06074479 -0.12516005 0.1726834 -0.14551246 0.08732211
00000000: 40e8 15be b02d 82bd 23a4 19be 1c12 22bd
00000010: 013b 90bd f343 eebd c4ff 32be c6d9 bebc
00000020: a277 e2bd cabe ef3c 3296 da3c f067 b5bd
00000030: e4e3 b43a 39be 54bd b986 43bd 0241 1a3e
00000040: 5565 253e be9d 03be 4306 fabd 4dc8 6c3d
00000050: 66e1 96bd 1309 b33d 8fbb 923d 0270 db3d
00000060: d999 edbc 38ab 42bd 70ee 9a3d 89f6 27be
00000070: 879b fc3d 4ca2 11be 4f8e 02bd e5f7 94bd
00000080: 88ef 92bc 91ea 293e 7ed8 28be e699 31be
00000090: 1b71 9f3d e611 af3c 7769 20be f424 ccbd
000000a0: 6045 f23d 6872 023d 9c3d febd 8a33 053e
000000b0: 4221 aa3d 485a 893d 42ad 77bd 6d8a 203d
000000c0: 8e6a 053d b439 1bbc 90e2 30be 6f78 9a3d
000000d0: 234b fbbc 8507 053e 7ad9 81bd d4f3 003d
000000e0: 04d3 c9bd 95f7 c5bd 1999 1f3e 63b5 2bbe
000000f0: a57c f43d b7c0 b4bd 0275 25be 66c8 ccbd
00000100: 42da 4ebd d83e e13d 3f4f 193e 2a22 323e
00000110: 1487 bcbd 7f64 8b3d 00c8 f3b5 475d 2dbd
00000120: be0f 87bc e046 adbd 24ab 01be 0243 f13d
00000130: 1104 01be 8a05 ad3d ed3b d4bd 383a 36bd
00000140: 09dd 66bd f2af 173e 612a 21be 0724 bbba
00000150: fe98 afbd 6e25 0e3e 6f5a 853b dacc a33a
00000160: 7ccd f1bd 3c33 0c3e 56a2 df3d 015c fa3d
00000170: ecb9 cdbd 0a6d 0fbe faf6 123d 9cd2 62bd
00000180: 840f 50bd 578c e23d 12d2 15bc 3901 cc3d
00000190: b933 16be c9b3 433d 34df 13be d09e 5fbd
000001a0: 951b 9c3d fc16 e9bd d632 ca3d 4b43 d23d
000001b0: e888 713d 7c65 edbc 301d d63c 4ef2 c53c
000001c0: c58d 88bd 0728 0dbe 00ae 83bc 6497 c23d
000001d0: 28c9 a4bd 3cca 883d 4420 74bd 0d42 6bbd
000001e0: d786 03be cb0d 2cbe 3f42 8ebd 87cf 78bd
000001f0: f529 00be ebd3 303e 3801 15be efd5 b23d

ln2.weight f4 [32]
1.0032492 1.0002363 1.0025785 1.0048705 0.9935102 0.9989857 0.9965303 1.0077704
0.9979242 1.0014551 1.0044392 0.99315435 0.9959766 1.0020676 0.9992092 1.0000317
0.99343467 1.003933 0.99319476 1.0007142 1.0004095 1.005359 0.9952837 1.0078005
1.0027171 0.9974795 0.99496293 1.0086138 1.0041963 0.9953291 1.0072334 0.9927182
00000000: 786a 803f be07 803f 7e54 803f 999f 803f
00000010: af56 7e3f 87bd 7f3f 9c1c 7f3f 9ffe 803f
00000020: f677 7f3f ae2f 803f 7791 803f 5d3f 7e3f
00000030: 53f8 7e3f c043 803f 2dcc 7f3f 0a01 803f
00000040: bc51 7e3f e080 803f 0342 7e3f 6717 803f
00000050: 6b0d 803f 9baf 803f eaca 7e3f 9bff 803f
00000060: 0959 803f d15a 7f3f e4b5 7e3f 421a 813f
00000070: 8189 803f e3cd 7e3f 06ed 803f c822 7e3f

ln2.bias f4 [32]
0.0048120245 -0.0046368735 0.004991249 0.0057666423 0.0077939574 0.0071017137 -0.0072838706 -0.008598211
-0.0015217203 0.0022801287 -0.00073513447 0.0012371724 0.001243934 -0.00035188778 -0.0068600764 0.004659336
0.0024214722 0.0024924031 0.006938272 -0.004827641 0.0035881223 -0.0015376487 0.0010755396 9.605428e-06
-0.003160399 -0.0008674507 0.008592943 0.007082588 -0.0015478414 0.0061105317 0.0074197627 -0.0027236405
00000000: 30ae 9d3b eaf0 97bb a28d a33b 1af6 bc3b
00000010: 7464 ff3b 7eb5 e83b 89ad eebb 83df 0cbc
00000020: 7674 c7ba 366e 153b 0ab6 40ba 9e28 a23a
00000030: 800b a33a 947d b8b9 7eca e0bb 58ad 983b
00000040: 90b1 1e3b 9657 233b 725a e33b 3031 9ebb
00000050: b426 6b3b ee8a c9ba 1ff9 8c3a 0027 2137
00000060: b21e 4fbb a265 63ba 6ac9 0c3c 0e15 e83b
00000070: f0e0 caba db3a c83b 7b21 f33b 1b7f 32bb
