models/best_ccs_lstm_model.pth (torch, 134011 bytes, 16 tensors)

lstm1.weight_ih_l0 f4 [256, 7]
0.050443385 -0.01783056 -0.0041246023 0.20517756 0.104985766 0.1306625 0.07041563 0.16783695
0.25518087 -0.11748352 0.056636747 0.044199627 0.059625745 -0.15823413 0.40632525 0.15526308
-0.30137345 -0.15801843 0.0891657 -0.003710201 -0.10914424 -0.15538876 0.008596281 0.14153886
-0.11865796 -0.07318337 -0.07770735 -0.11828367 -0.2809766 -0.22527914 0.26163256 -0.20945473
0.10600156 0.04881543 -0.15131153 0.106686175 0.077482514 0.035734687 0.011814738 0.15948752
0.10501451 -0.13623273 0.07345956 0.14549762 0.107031554 -0.108431436 0.095033936 0.05068802
0.04180169 -0.248922 -0.07500668 0.09603246 -0.14019598 0.12918085 0.0959966 -0.030992487
0.06350755 -0.11423911 0.090406835 -0.13260925 -0.09479594 -0.1250803 0.046074536 -0.23765571
0.08210358 0.1786384 0.09513005 -0.046625033 -0.040121883 -0.069129854 0.21710001 -0.046035998
0.059517805 -0.12551127 -0.24789861 -0.22636661 -0.08997431 -0.121406026 0.03535265 0.09283781
-0.09359278 -0.17928366 0.0073472033 -0.032112382 0.15184188 -0.013823687 -0.03297843 -0.14360325
-0.049315274 -0.04439998 0.17116085 -0.21930787 0.023170602 0.09498048 -0.10787969 -0.12415861
0.07573401 -0.09109686 -0.4075179 -0.18293472 0.20853823 0.025373645 -0.007825148 -0.14338575
-0.08362693 -0.07794611 -0.18039912 -0.048312206 -0.1532571 0.0018740377 0.103691585 -0.008910735
0.49921376 -0.09302937 -0.42799574 -0.019561619 0.0387703 -0.050458796 -0.0865376 -0.30392912
0.012900572 0.19576845 0.007947006 -0.07955261 -0.18795589 -0.12041339 -0.40480313 -0.09466022
0.270054 -0.029971454 0.03313108 0.054412667 -0.06454869 0.20633216 -0.023387173 -0.063926384
0.12862638 -0.0706138 0.04885212 0.02397131 0.09758859 -0.13880803 0.11530619 -0.058281522
-0.13286704 -0.034236055 -0.027752705 0.20113532 0.25988722 -0.17227174 0.09355511 0.05806318
-0.0036369397 -0.029651277 0.06697609 -0.01859751 0.09545474 -0.09352975 0.14268154 -0.13351335
0.08399683 0.07445057 0.057429608 -0.034031373 0.0039848126 0.18934144 0.031133106 0.26969093
0.26254553 -0.14862368 -0.1510258 -0.08378322 -0.04932474 -0.14749369 -0.06782581 -0.17694078
-0.015418372 0.14496751 0.024412138 -0.038413554 0.06576012 -0.118266724 -0.25193375 -0.267232
0.17079297 0.04398724 0.0077390443 -0.12954287 -0.00245993 0.019253219 0.0260181 -0.13346829
0.05887266 0.1752231 -0.17688736 0.010054075 -0.021950157 0.024492871 -0.024244225 0.018591108
-0.08588796 -0.07544879 0.0735177 0.08907123 0.018533226 0.049818296 -0.13395354 0.018992595
0.08853107 -0.023521671 0.28123116 0.02679244 -0.30429006 -0.0005815639 0.025540415 0.14267917
-0.04547696 0.23870271 0.078626394 -0.28225663 -0.1208509 0.08311457 0.020282788 -0.09479714
-0.37037277 -0.016680984 0.20362784 -0.072994806 -0.14748056 -0.11276113 -0.07853945 -0.26308268
0.022011872 0.4088336 -0.01699691 0.116548605 0.016516041 -0.19416542 0.17632474 0.03150465
-0.16361144 0.0029840707 -0.021366488 -0.10327412 -0.08427188 -0.021806436 -0.06969666 0.005985804
-0.10786322 -0.067925565 -0.3062863 -0.1103311 0.3729105 0.05358682 -0.36556593 -0.107777834
00000000: b99d 4e3d 6511 92bc ac27 87bb 111a 523e
00000010: c702 d73d 64cc 053e 1236 903d 73dd 2b3e
00000020: 11a7 823e 339b f0bd effb 673d ab0a 353d
00000030: 203a 743d 2108 22be dd09 d03e 49fd 1e3e
00000040: 9f4d 9abe 95cf 21be 829c b63d d826 73bb
00000050: 0487 dfbd 3b1e 1fbe 6ad7 0c3c 90ef 103e
00000060: f202 f3bd 2ae1 95bd 0825 9fbd b53e f2bd
00000070: 2adc 8fbe 93af 66be b4f4 853e 4d7b 56be
00000080: 5917 d93d b0f2 473d 69f1 1abe 487e da3d
00000090: 27af 9e3d 895e 123d 9a92 413c b250 233e
000000a0: d911 d73d 9880 0bbe f771 963d 54fd 143e
000000b0: 5c33 db3d 4d11 debd 27a1 c23d 3e9e 4f3d
000000c0: 4038 2b3d 69e5 7ebe 1a9d 99bd abac c43d
000000d0: 898f 0fbe fc47 043e de99 c43d f5e3 fdbc
000000e0: 3f10 823d 32f6 e9bd 3827 b93d b8ca 07be
000000f0: 6024 c2bd 0d15 00be a7b8 3c3d 055c 73be
00000100: ec25 a83d fcec 363e 8bd3 c23d e4f9 3ebd
00000110: d856 24bd f493 8dbd 774f 5e3e 3e90 3cbd
00000120: f1c8 733d 0786 00be 22d9 7dbe a6cc 67be
00000130: 7344 b8bd b9a3 f8bd f1cd 103d c021 be3d
00000140: 92ad bfbd 2396 37be cfc0 f03b 4688 03bd
00000150: 707c 1b3e bf7c 62bc 6414 07bd bb0c 13be
00000160: d0fe 49bd c1dc 35bd ca44 2f3e 3e92 60be
00000170: 46d0 bd3c 2085 c23d 07f0 dcbd df46 febd
00000180: 6f1a 9b3d fe90 babd 30a6 d0be 3d53 3bbe
00000190: 0c8b 553e 64dc cf3c 0d35 00bc b7d3 12be
000001a0: 9944 abbd 36a2 9fbd 8cba 38be 05e3 45bd
000001b0: 6eef 1cbe 45a2 f53a 415c d43d 55fe 11bc
000001c0: f298 ff3e 2f86 bebd 4222 dbbe b03f a0bc
000001d0: 9bcd 1e3d e2ad 4ebd a03a b1bd 999c 9bbe
000001e0: ec5c 533c 8677 483e 2934 023c 7bec a2bd
000001f0: 8277 40be 4c9b f6bd 5b42 cfbe 38dd c1bd
00000200: 8544 8a3e b286 f5bc 75b4 073d d1df 5e3d
00000210: 1b32 84bd bd48 533e 7596 bfbc d6eb 82bd
00000220: a2b6 033e f89d 90bd 2919 483d 7b5f c43c
00000230: 87dc c73d b123 0ebe a725 ec3d 9bb8 6ebd
00000240: 4c0e 08be 1b3b 0cbd a459 e3bc 6bf6 4d3e
00000250: f00f 853e 0168 30be d299 bf3d a8d3 6d3d
00000260: b959 6ebb 3ce7 f2bc c32a 893d ce59 98bc
00000270: c67d c33d 878c bfbd 1c1b 123e b9b7 08be
00000280: 8806 ac3d 8a79 983d 4f3b 6b3d 7b64 0bbd
00000290: 0893 823b b9e2 413e db0a ff3c ee14 8a3e
000002a0: 5e6c 863e ce30 18be 82a6 1abe 8996 abbd
000002b0: bd08 4abd 9608 17be 42e8 8abd f72f 35be
000002c0: 579d 7cbc 5d72 143e f7fb c73c 8857 1dbd
000002d0: 3ead 863d d335 f2bd 76fd 80be a2d2 88be
000002e0: 5ae4 2e3e f72b 343d cf97 fd3b e3a6 04be
000002f0: c736 21bb edb8 9d3c e923 d53c e9ab 08be
00000300: 7524 713d af6d 333e f621 35be d9b9 243c
00000310: d1d0 b3bc 46a5 c83c d39b c6bc 614c 983c
00000320: 07e6 afbd e584 9abd 7390 963d fa6a b63d
00000330: fed2 973c 450e 4c3d 1e2b 09be 5c96 9b3c
00000340: c74f b53d 85b0 c0bc 88fd 8f3e d27b db3c
00000350: e8cb 9bbe 1874 18ba 223a d13c 7d1a 123e
00000360: 0c46 3abd 7c6e 743e e006 a13d f183 90be
00000370: ad80 f7bd f937 aa3d 1728 a63c 0125 c2bd
00000380: 80a1 bdbe 8fa6 88bc d183 503e 4d7e 95bd
00000390: 2505 17be 4fef e6bd 4bd9 a0bd c6b2 86be
000003a0: 3e52 b43c a352 d13e 1b3d 8bbc 09b1 ee3d
000003b0: a64c 873c 4dd3 46be 798e 343e 050b 013d
000003c0: c289 27be 6690 433b c608 afbc 6281 d3bd
000003d0: bc96 acbd 69a3 b2bc 1fbd 8ebd 9024 c43b
000003e0: 64e7 dcbd 8f1c 8bbd 8fd1 9cbe 46f5 e1bd
000003f0: 20ee be3e da7d 5b3d 752b bbbe a0ba dcbd

lstm1.weight_hh_l0 f4 [256, 64]
-0.060663648 0.0010056184 -0.0063086613 0.055226244 0.0019884591 -0.09194151 0.1437009 -0.07860681
-0.20059583 -0.23296471 0.08972762 -0.192298 0.13964444 -0.16142873 -0.07631259 -0.06835395
0.11555612 -0.13405477 0.032052033 -0.11618791 -0.02498064 0.28581357 0.11093961 0.13386846
-0.049499225 -0.14679025 -0.08395886 -0.040648304 -0.11208136 0.0013680261 -0.022716368 0.004289065
0.107693784 -0.07842825 0.1382544 -0.014275283 -0.11905 -0.043168757 0.1553144 -0.110529765
-0.018696524 -0.07938793 0.059956905 0.031624913 -0.080972776 -0.06890241 0.098023266 -0.28752694
-0.14233343 0.13799104 0.10451949 -0.17651002 -0.15669104 -0.013949147 0.1503977 0.10457117
0.06262719 -0.044280816 0.0057243593 -0.24135348 0.070035316 0.059410464 -0.03636017 0.04647546
-0.2460653 -0.15549468 -0.21830216 0.023128789 0.031988144 -0.12950924 0.08436254 0.15818886
-0.015607211 0.15539025 0.015105078 -0.02529238 0.040031336 0.2815901 0.08351554 0.026450364
-0.04996203 0.0076753926 -0.115105234 -0.05883169 -0.19487612 0.010808656 0.03218083 -0.10022159
-0.12375639 0.076584704 0.10055522 0.09283656 0.08163738 0.05425714 0.004720121 0.057365783
0.046875168 0.06581889 0.15032724 0.029649308 -0.048829205 -0.004762688 -0.014309312 -0.038090024
0.12539168 0.029021261 0.10447309 -0.19272855 0.011006096 -0.16442157 -0.03299334 -0.0036406321
0.18950479 -0.0629234 -0.08213207 0.056808256 0.063325725 0.055497892 0.004204504 -0.07055792
-0.005644165 -0.096635304 -0.07413202 0.09658485 0.12810308 -0.08366593 0.09157609 0.0045692194
-0.2179361 -0.301988 -0.14809935 -0.17615592 0.22461459 0.13511205 0.23162013 0.16461073
0.037185296 0.17126395 -0.17163017 0.13602033 -0.29546696 0.14150722 0.04180016 -0.28918645
0.03441482 -0.077059455 -0.109181695 0.07735191 0.10728589 -0.16804498 0.19673352 0.08018481
0.007930297 0.16547671 -0.20888549 0.00617603 -0.05353307 -0.2924685 0.01996038 0.08899685
-0.24645664 0.16827457 0.04262634 -0.035932567 0.06767598 -0.0045329886 0.3334275 0.14900763
0.18806672 -0.17538081 -0.22336373 -0.18140806 -0.13392583 -0.33187234 0.016855631 -0.08615019
-0.037930388 0.04945027 -0.04504718 -0.3303706 0.10240274 0.12560233 -0.23848793 -0.002614096
-0.22240487 0.04975847 0.26113808 -0.0027134242 0.039540492 0.24063165 -0.099703506 0.36229634
0.059236746 -0.083810695 -0.14643458 0.06647529 -0.052380778 -0.053657196 0.13296303 0.008537001
0.0032994999 -0.10631686 -0.07294981 -0.19363233 0.018098703 0.002765176 -0.1538035 -0.12447558
-0.045546662 -0.14854036 0.071790814 -0.19418548 -0.065213494 0.048273228 0.0076465015 0.021636881
-0.04465639 -0.09177612 0.11682635 -0.100334994 -0.042833637 -0.034508917 -0.090737596 -0.10152241
0.18040979 -0.09215949 -0.051013157 0.011442149 0.032025233 0.012724448 0.10920027 -0.12555775
0.12137723 0.013185274 -0.09524889 -0.0209058 -0.037710257 -0.07036989 0.04672807 0.00022603844
8.648759e-05 -0.077025875 -0.028356502 -0.09750631 0.0107916305 -0.12354338 0.18413377 0.1967933
-0.058561854 -0.084495306 -0.18245186 -0.14291812 0.0202681 -0.050402947 0.03911302 0.08195245
00000000: 727a 78bd f4ce 833a e3b8 cebb ea34 623d
00000010: cf50 023b d54b bcbd 5426 133e 9bfc a0bd
00000020: fe68 4dbe 4d8e 6ebe 1dc3 b73d c4e9 44be
00000030: f4fe 0e3e 934d 25be c649 9cbd 28fd 8bbd
00000040: b0a8 ec3d a745 09be fe48 033d edf3 edbd
00000050: 33a4 ccbc 2856 923e 4e34 e33d d014 093e
00000060: b3bf 4abd 2f50 16be 9ff2 abbd d67e 26bd
00000070: e98a e5bd 574f b33a ad17 babc 498b 8c3b
00000080: 8f8e dc3d fe9e a0bd 9092 0d3e e0e2 69bc
00000090: 7dd0 f3bd b9d1 30bd bd0a 1f3e 6e5d e2bd
000000a0: 7429 99bc 2496 a2bd 5f95 753d 2089 013d
000000b0: 0ed5 a5bd b51c 8dbd 6cc0 c83d bb36 93be
000000c0: dbbf 11be 864d 0d3e 500e d63d 0bbf 34be
000000d0: 9e73 20be f78a 64bc db01 1a3e 6929 d63d
000000e0: af42 803d cd5f 35bd 6893 bb3b 5e25 77be
000000f0: ad6e 8f3d 6358 733d 67ee 14bd 0d5d 3e3d
00000100: 8bf8 7bbe ff39 1fbe 9a8a 5fbe 9678 bd3c
00000110: 0006 033d 129e 04be 44c6 ac3d 43fc 213e
00000120: 63b5 7fbc 9f1e 1f3e 4a7b 773c f731 cfbc
00000130: e6f7 233d 942c 903e 320a ab3d 6fae d83c
00000140: fca4 4cbd dc81 fb3b 4bbc ebbd 80f9 70bd
00000150: 9b8d 47be ca16 313c 0cd0 033d fa40 cdbd
00000160: fd73 fdbd 71d8 9c3d e5ef cd3d 1821 be3d
00000170: 8031 a73d bc3c 5e3d 3fab 9a3b 62f8 6a3d
00000180: 2d00 403d 0ecc 863d 62ef 193e 1be3 f23c
00000190: 2201 48bd 5310 9cbb 9b71 6abc 4904 1cbd
000001a0: ad66 003e ffbd ed3c fdf5 d53d a25a 45be
000001b0: ea52 343c 215e 28be 0624 07bd ac97 6ebb
000001c0: 8b0d 423e fcdd 80bd dc34 a8bd c6af 683d
000001d0: ebb0 813d c251 633d f0c5 893b ac80 90bd
000001e0: b0f2 b8bb bbe8 c5bd 87d2 97bd 47ce c53d
000001f0: 742d 033e 0b59 abbd 3f8c bb3d 64b9 953b
00000200: a42a 5fbe 2c9e 9abe 5ba7 17be 3862 34be
00000210: 5e01 663e d05a 0a3e d42d 6d3e b78f 283e
00000220: 9c4f 183d d15f 2f3e d2bf 2fbe ea48 0b3e
00000230: 7247 97be 45e7 103e a536 2b3d 3f10 94be
00000240: 8ef6 0c3d 59d1 9dbd a79a dfbd ae6a 9e3d
00000250: b4b8 db3d fc13 2cbe 8374 493e ef37 a43d
00000260: 14ee 013c ba72 293e 14e6 55be 4b60 ca3b
00000270: 7e45 5bbd 6ebe 95be f383 a33c fb43 b63d
00000280: 215f 7cbe 2b50 2c3e f598 2e3d 072e 13bd
00000290: b499 8a3d 7789 94bb 02b7 aa3e 7595 183e
000002a0: 9094 403e 0797 33be 76b9 64be 09c3 39be
000002b0: da23 09be 2ceb a9be d214 8a3c 836f b0bd
000002c0: e55c 1bbd 5e8c 4a3d 6483 38bd 5626 a9be
000002d0: 87b8 d13d e69d 003e 2e36 74be 4151 2bbb
000002e0: 1abe 63be 8acf 4b3d e4b3 853e b4d3 31bb
000002f0: 36f5 213d 2568 763e 5a31 ccbd e87e b93e
00000300: 3ba2 723d f1a4 abbd f2f2 15be 3224 883d
00000310: 3a8d 56bd a6c7 5bbd 7627 083e c7de 0b3c
00000320: 6c3c 583b a7bc d9bd b666 95bd 8e47 46be
00000330: bb43 943c f437 353b aa7e 1dbe 0eed febd
00000340: 238f 3abd f71a 18be 1007 933d 8fd8 46be
00000350: a78e 85bd 26ba 453d 818f fa3b d43f b13c
00000360: 9ee9 36bd 1ef5 bbbd a742 ef3d 6f7c cdbd
00000370: 5372 2fbd 3959 0dbd a2d4 b9bd fbea cfbd
00000380: 58bd 383e 1dbe bcbd 2cf3 50bd da77 3b3c
00000390: e42c 033d 347a 503c 64a4 df3d 3692 00be
000003a0: a094 f83d 0c07 583c da11 c3bd a442 abbc
000003b0: 1276 1abd 171e 90bd ef65 3f3d bb04 6d39
000003c0: ac60 b538 bebf 9dbd e54b e8bc 63b1 c7bd
000003d0: 61cf 303c 5004 fdbd 908d 3c3e 2f84 493e
000003e0: 8ede 6fbd e00b adbd a9d4 3abe 2159 12be
000003f0: 4909 a63c 5273 4ebd f934 203d b0d6 a73d

lstm1.bias_ih_l0 f4 [256]
-0.058299974 -0.031573612 0.09259032 -0.0007441248 0.08233095 -0.077508 -0.28158018 -0.10450285
-0.024926305 0.028371172 -0.21436885 -0.13786542 -0.20248576 -0.12013007 -0.04187736 -0.11699906
0.10810655 -0.18952787 -0.11357588 -0.056739494 -0.29527998 -0.23836218 0.10722189 -0.14592358
-0.14515601 0.08766201 0.024272026 -0.08365532 -0.2141215 -0.0129141295 -0.17920822 -0.16402005
0.012590536 0.19827141 0.032226726 -0.30299315 -0.08610701 -0.1574511 0.0058908383 0.07447075
0.06086042 0.03813032 -0.028227663 0.10644991 -0.17232321 -0.12952472 -0.2370906 -0.049230084
-0.27664086 -0.31373534 -0.0423158 -0.07683238 -0.08871654 0.08084577 0.13123912 -0.2626945
-0.24643534 0.08232312 -0.14587374 -0.010291504 -0.19519714 0.09752603 -0.023763439 -0.19358587
-0.24912545 -0.04938461 -0.09782263 -0.055231582 -0.32942674 -0.19551241 -0.2628675 0.092398785
-0.3508911 -0.17582573 -0.35359284 -0.30139574 -0.24844053 -0.0769387 -0.20981279 -0.2540794
-0.104437895 -0.29655108 -0.27022123 0.190813 -0.22210158 0.014037792 -0.33699057 -0.039248444
-0.27728352 -0.21639347 -0.15428495 -0.2530599 -0.06483003 -0.21817958 -0.16556568 -0.1743837
-0.22583413 -0.19108807 -0.10375328 -0.2364193 -0.24523295 -0.28689247 -0.088246725 -0.28827387
-0.17048775 -0.11786941 -0.14195979 -0.1373694 -0.2799491 -0.26862687 -0.0033048969 0.02169219
-0.058279127 -0.40126953 -0.32656896 -0.039351836 -0.008631664 -0.2519051 -0.39403945 -0.23722942
-0.16110453 -0.1553122 -0.24321353 0.061737716 -0.29497308 -0.14300793 -0.008049021 -0.15142733
0.014260585 0.054413725 0.19101529 -0.08797656 0.043147005 -0.0047280965 -0.03628439 0.21388738
0.037234567 0.1579974 0.07126726 0.016278325 0.031045549 0.02005292 0.14529714 -0.001130283
0.14203738 0.09685601 -0.16866243 0.16887498 0.10932781 -0.027601868 0.0011886929 -0.096714035
0.06295841 -0.0064856666 -0.20284232 0.09319964 -0.04330981 0.08097836 -0.06720396 -0.09044106
-0.119649716 0.17486681 -0.15643877 -0.09931011 -0.14123012 -0.08158882 0.15582083 0.12001348
-0.08459617 -0.17402315 0.07128651 -0.13963616 -0.11764423 0.10801164 -0.12811479 0.067041226
-0.050067242 -0.09606139 -0.1790558 -0.07690821 0.052089483 -0.15159881 -0.094047666 -0.085541815
0.10957925 -0.19941722 -0.0086030625 0.050036337 -0.092374064 0.07730581 -0.1568262 -0.10874775
-0.08809303 -0.029366855 0.026836466 -0.043235738 -0.015676638 -0.28514472 -0.3209374 -0.012887213
-0.20363064 0.007221294 -0.2877231 -0.0697757 -0.16943944 -0.23329988 -0.119127266 0.012704573
-0.117643945 -0.04276753 -0.052649155 -0.17645156 -0.4046871 -0.07358296 0.11011772 -0.2518378
-0.24942242 0.045728587 0.0013133948 -0.19171648 -0.043353286 -0.12379378 -0.24862725 -0.031561065
-0.1400734 0.075460054 -0.058214907 -0.29820168 -0.037553005 -0.2670453 0.07958606 -0.14048418
0.013305099 0.037224833 -0.07566708 -0.04079919 -0.20900209 -0.10330983 -0.047853623 -0.1205692
-0.18375845 -0.29064175 -0.02313925 -0.06942489 -0.036083896 -0.107362 -0.03601259 -0.051994156
-0.19086035 0.0069049555 -0.27331302 -0.08096183 -0.19542488 0.02595086 -0.09828464 -0.13699776
00000000: f4cb 6ebd 5553 01bd fe9f bd3d 5f11 43ba
00000010: 219d a83d 84bc 9ebd 472b 90be 9705 d6bd
00000020: 4032 ccbc a96a e83c 8283 5bbe 982c 0dbe
00000030: 6d58 4fbe c106 f6bd 9887 2bbd 349d efbd
00000040: f866 dd3d 9813 42be 799a e8bd ac67 68bd
00000050: f02e 97be 3715 74be 2697 db3d fe6c 15be
00000060: c7a3 14be 2488 b33d 21d6 c63c 7b53 abbd
00000070: ab42 5bbe c995 53bc 5c82 37be dff4 27be
00000080: 8948 4e3c a907 4b3e 2c00 043d eb21 9bbe
00000090: df58 b0bd dc3a 21be ef07 c13b 1f84 983d
000000a0: c748 793d 8a2e 1c3d b33d e7bc 6902 da3d
000000b0: 7f75 30be 21a2 04be e1c7 72be 7ca5 49bd
000000c0: dfa3 8dbe eba1 a0be 5553 2dbd 4b5a 9dbd
000000d0: 04b1 b5bd 7892 a53d 8c63 063e e57f 86be
000000e0: 8c59 7cbe 0699 a83d ed5f 15be b29d 28bc
000000f0: c2e1 47be babb c73d 8bab c2bc 603b 46be
00000100: be1a 7fbe 8447 4abd 3b57 c8bd 833a 62bd
00000110: 9faa a8be 6834 48be 9296 86be 933b bd3d
00000120: 00a8 b3be a90b 34be 1f0a b5be 8b50 9abe
00000130: 3267 7ebe 0a92 9dbd 2ad9 56be b216 82be
00000140: 89e3 d5bd 8bd5 97be 705a 8abe 7c64 433e
00000150: 996e 63be c4fe 653c 078a acbe fac2 20bd
00000160: 1bf8 8dbe 4096 5dbe e0fc 1dbe 1191 81be
00000170: 9bc5 84bd 786a 5fbe 0d8a 29be a491 32be
00000180: 1041 67be 97ac 43be 9a7c d4bd e717 72be
00000190: 591e 7bbe 92e3 92be b3ba b4bd a298 93be
000001a0: 5794 2ebe 8465 f1bd e85d 11be 90aa 0cbe
000001b0: 7d55 8fbe 7689 89be f896 58bb d2b3 b13c
000001c0: 18b6 6ebd 3373 cdbe 0c34 a7be 642f 21bd
000001d0: d36b 0dbc b5f9 80be 8abf c9be 45ec 72be
000001e0: 96f8 24be 290a 1fbe f80c 79be b0e0 7c3d
000001f0: b606 97be ac70 12be 0ae0 03bc c40f 1bbe
00000200: 3ba5 693c ede0 5e3d 8399 433e 0e2d b4bd
00000210: eaba 303d 26ee 9abb f19e 14bd 4b05 5b3e
00000220: 4683 183d 12ca 213e 92f4 913d 1f5a 853c
00000230: 3c53 fe3c 0546 a43c c6c8 143e 0126 94ba
00000240: 3f72 113e 725c c63d d8b5 2cbe 90ed 2c3e
00000250: 42e7 df3d 501d e2bc eacd 9b3a 0212 c6bd
00000260: 57f0 803d b785 d4bb e6b5 4fbe 74df be3d
00000270: a165 31bd fbd7 a53d 3ba2 89bd 2a39 b9bd
00000280: e90a f5bd 4910 333e 7c31 20be 1963 cbbd
00000290: a19e 10be 0a18 a7bd 7f8f 1f3e a1c9 f53d
000002a0: c240 adbd 2033 32be a9fe 913d c8fc 0ebe
000002b0: 75ef f0bd 3535 dd3d 8630 03be e94c 893d
000002c0: 4f13 4dbd d6bb c4bd 675a 37be 0d82 9dbd
000002d0: c85b 553d b83c 1bbe 109c c0bd 8c30 afbd
000002e0: 166b e03d 0734 4cbe dcf3 0cbc e7f2 4c3d
000002f0: 9d2e bdbd 8252 9e3d 0c97 20be 24b7 debd
00000300: 1e6a b4bd c292 f0bc 26d8 db3c f517 31bd
00000310: 4b6c 80bc 7dfe 91be e851 a4be e424 53bc
00000320: 8d84 50be 9ba0 ec3b 7150 93be 90e6 8ebd
00000330: 8881 2dbe 2ae6 6ebe fff8 f3bd d726 503c
00000340: 4fef f0bd 012d 2fbd a4a6 57bd b8af 34be
00000350: 2633 cfbe aab2 96bd 6685 e13d e2f0 80be
00000360: 9768 7fbe e64d 3b3d 3726 ac3a 5351 44be
00000370: 3793 31bd 9887 fdbd 2498 7ebe 2d46 01bd
00000380: 676f 0fbe cd8a 9a3d c172 6ebd e4ad 98be
00000390: 2ed1 19bd 29ba 88be 04fe a23d 16db 0fbe
000003a0: a1fd 593c 1179 183d 58f7 9abd 0d1d 27bd
000003b0: a504 56be 1b94 d3bd 2902 44bd fcec f6bd
000003c0: 2d2b 3cbe ffce 94be 868e bdbc a32e 8ebd
000003d0: b5cc 13bd 9ce0 dbbd f081 13bd d3f7 54bd
000003e0: e570 43be f742 e23b afef 8bbe 51cf a5bd
000003f0: 761d 48be e696 d43c 7549 c9bd 2449 0cbe

lstm1.bias_hh_l0 f4 [256]
-0.15514459 -0.03846222 -0.04468879 -0.19387151 0.051531427 -0.24665427 -0.16716945 -0.027062345
-0.045084883 -0.11837143 -0.1897761 -0.19078597 -0.24301459 -0.14031357 -0.058496714 -0.08157882
-0.06886496 -0.09568676 -0.03207219 -0.079367846 -0.46834618 -0.16406892 0.13201925 -0.08101121
-0.21238159 0.024919892 -0.007651262 0.00022321446 -0.009893348 -0.18964046 -0.16841695 0.008014434
-0.016426496 0.045037784 -0.04839038 -0.29380694 -0.09041714 -0.29575586 0.08625948 -0.014883661
0.019685261 -0.009429146 -0.008112454 0.030614601 -0.28537306 -0.113377266 -0.106793575 -0.14945091
-0.16544725 -0.15586898 -0.0372031 -0.17653784 0.01699214 0.015822629 -0.008783826 -0.107229404
-0.3047186 0.012669465 -0.1966206 -0.04909133 -0.15355125 -0.054084286 -0.13458012 -0.040460408
-0.39310756 -0.053363048 -0.10024501 -0.167523 -0.19645584 -0.06364371 -0.250879 -0.019049294
-0.343452 -0.22012226 -0.19045345 -0.2355283 -0.27661875 -0.10618688 -0.23694763 -0.14308247
-0.28140178 -0.30555406 -0.28841513 0.020171301 -0.28660405 -0.17904253 -0.2881717 -0.11675283
-0.31924027 -0.26361516 -0.14841467 -0.33084565 -0.024713531 -0.09811782 -0.22764821 -0.17840514
-0.14203501 -0.11486743 -0.15532993 -0.18290089 -0.074560165 -0.30928242 0.07966489 -0.35084993
-0.2396975 -0.1768399 -0.33039442 -0.22241765 -0.24996081 -0.16789347 -0.08662224 -0.08738047
-0.052096 -0.26505646 -0.24315625 -0.00796686 -0.19097029 -0.1513321 -0.43797326 -0.021273393
-0.27153453 -0.28094074 -0.18470486 -0.11313866 -0.30919826 -0.21861483 0.030610409 -0.07944081
-0.11197855 0.038601074 0.03859827 -0.032079414 0.14725123 0.092307515 0.0311257 0.04990883
0.0122612715 0.007571693 -0.028284641 0.093429565 -0.075740926 0.15103218 0.1792525 0.016530175
0.0802903 0.015431988 -0.07014657 0.08087209 -0.09804733 -0.10398478 0.039063085 0.04558914
0.07508557 0.17813157 -0.047643226 0.08289088 0.021103192 -0.11961171 0.15608267 -0.08011484
-0.16540356 0.11395361 -0.14586565 0.017733386 -0.10002148 0.021422574 -0.036644112 0.11979812
0.092665285 -0.10852719 0.1344683 -0.13281724 0.030012077 -0.077078305 -0.08937943 -0.028740644
-0.014859484 0.11191273 -0.10398608 0.10407568 0.16647184 -0.11405559 -0.12970062 -0.031941175
-0.07410082 -0.03149932 0.12354136 0.03959475 0.06656931 0.22724794 -0.03875236 0.004238022
-0.18957458 -0.1659352 -0.068110034 -0.14884675 -0.10096496 -0.26704198 -0.17867985 -0.102847986
-0.23342942 -0.19600958 -0.22421184 -0.16013083 -0.268083 -0.27631232 0.054637168 0.010581546
0.033691958 -0.06824092 -0.009916074 -0.03132643 -0.29836154 -0.20122454 0.078134164 -0.1811334
-0.11176383 -0.11449162 -0.12609492 -0.18482284 -0.14601827 0.008277804 -0.2009852 -0.06856797
-0.046884254 0.10227383 -0.08703817 -0.31307283 -0.11897022 -0.14530598 -0.14587034 -0.16293511
0.048017472 0.08529716 -0.090608865 -0.089870885 -0.04506488 -0.08606484 -0.24198316 0.028038038
-0.12444614 -0.16700335 0.12855814 -0.256069 -0.07835733 0.12870024 -0.0714112 -0.25126544
-0.17120354 -0.075863674 -0.11862608 -0.14984787 0.032576118 0.06439823 -0.17941733 -0.24254067
00000000: 39de 1ebe 908a 1dbd 980b 37bd 4186 46be
00000010: 9e12 533d f092 7cbe 782e 2bbe dab1 ddbc
00000020: edaa 38bd b86c f2bd aa54 42be 665d 43be
00000030: d1d8 78be 5cae 0fbe 409a 6fbd cc12 a7bd
00000040: 1209 8dbd 6cf7 c3bd 215e 03bd 9c8b a2bd
00000050: 12cb efbe af01 28be 0e30 073e 35e9 a5bd
00000060: 8f7a 59be cd24 cc3c 70b7 fabb ad0e 6a39
00000070: b617 22bc 1c31 42be 7e75 2cbe f94e 033c
00000080: dc90 86bc 8a79 383d fe34 46bd dd6d 96be
00000090: 9f2c b9bd 506d 97be cfa8 b03d 99da 73bc
000000a0: fc42 a13c b47c 1abc 19ea 04bc 79cb fa3c
000000b0: 6b1c 92be 5732 e8bd 97b6 dabd a909 19be
000000c0: 016b 29be 1e9c 1fbe 4762 18bd 56c6 34be
000000d0: 1a33 8b3c 759e 813c 09ea 0fbc 179b dbbd
000000e0: 1404 9cbe 9693 4f3c e956 49be fe13 49bd
000000f0: 8a3c 1dbe 7c87 5dbd 5fcf 09be d0b9 25bd
00000100: 6545 c9be 3693 5abd 414d cdbd 268b 2bbe
00000110: b82b 49be a257 82bd 3673 80be 440d 9cbc
00000120: f1d8 afbe bb67 61be 3b06 43be 552e 71be
00000130: f9a0 8dbe 8278 d9bd 66a2 72be 3684 12be
00000140: e513 90be 9571 9cbe 26ab 93be 493e a53c
00000150: c4bd 92be ed56 37be 3e8b 93be 1c1c efbd
00000160: 7673 a3be 91f8 86be 04fa 17be 9a64 a9be
00000170: 0874 cabc fff1 c8bd 9d1c 69be d6af 36be
00000180: a071 11be 9d3f ebbd cf0e 1fbe 5f4a 3bbe
00000190: 00b3 98bd 445a 9ebe 5927 a33d 9aa2 b3be
000001a0: 4373 75be 8515 35be 7529 a9be 74c1 63be
000001b0: baf5 7fbe 44ec 2bbe 0067 b1bd 88f4 b2bd
000001c0: 9e62 55bd 7bb5 87be f4fd 78be 6f87 02bc
000001d0: b78d 43be cdf6 1abe 083e e0be 8a45 aebc
000001e0: 9306 8bbe 77d7 8fbe 4523 3dbe 3eb5 e7bd
000001f0: 3c4f 9ebe 91dc 5fbe aec2 fa3c ddb1 a2bd
00000200: 0355 e5bd 291c 1e3d 3819 1e3d b465 03bd
00000210: 07c9 163e b90b bd3d 53fb fe3c 346d 4c3d
00000220: 80e3 483c f71b f83b 31b5 e7bc 0058 bf3d
00000230: 0f1e 9bbd 2ea8 1a3e f88d 373e 4a6a 873c
00000240: 3e6f a43d 73d6 7c3c 01a9 8fbd 44a0 a53d
00000250: 0acd c8bd f9f5 d4bd 9d00 203d aebb 3a3d
00000260: 77c6 993d 1f68 363e 8b25 43bd b2c2 a93d
00000270: 9ae0 ac3c fcf6 f4bd 23d4 1f3e 4013 a4bd
00000280: 8d5f 29be 8360 e93d ce5d 15be 9b45 913c
00000290: 10d8 ccbd 657e af3c 2318 16bd b758 f53d
000002a0: 4cc7 bd3d 8143 debd 0fb2 093e 3e01 08be
000002b0: e3db f53c 3bdb 9dbd 900c b7bd 8071 ebbc
000002c0: 3175 73bc 8032 e53d a7f6 d4bd a125 d53d
000002d0: 9877 2a3e fa95 e9bd 3dd0 04be c0d4 02bd
000002e0: 2cc2 97bd 6e05 01bd 4103 fd3d 1b2e 223d
000002f0: 7e55 883d afb3 683e cbba 1ebd 1bdf 8a3b
00000300: d71f 42be ebea 29be 467d 8bbd 486b 18be
00000310: b8c6 cebd bab9 88be daf7 36be f7a1 d2bd
00000320: 1f08 6fbe bcb6 48be ca97 65be 56f9 23be
00000330: 2d42 89be cf78 8dbe 39cb 5f3d 395e 2d3c
00000340: 9400 0a3d e5c1 8bbd 0777 22bc 2550 00bd
00000350: d8c2 98be ce0d 4ebe ce04 a03d 097b 39be
00000360: 6fe4 e4bd 957a eabd 071f 01be 3342 3dbe
00000370: d085 15be a09f 073c 10cf 4dbe 5d6d 8cbd
00000380: b409 40bd f174 d13d 1141 b2bd 154b a0be
00000390: a9a6 f3bd 17cb 14be 095f 15be 76d8 26be
000003a0: f8ad 443d 47b0 ae3d 2491 b9bd 3a0e b8bd
000003b0: f495 38bd c342 b0bd 6fca 77be 07b0 e53c
000003c0: 9edd febd ed02 2bbe bfa4 033e 7a1b 83be
000003d0: cf79 a0bd ffc9 033e 0940 92bd dda5 80be
000003e0: fb4f 2fbe 6a5e 9bbd 3bf2 f2bd b871 19be
000003f0: 896e 053d 38e3 833d 2db9 37be 955c 78be

ln1.weight f4 [64]
0.94288516 0.9794548 1.1446258 0.8480008 1.059189 0.9246396 0.8435803 0.9390757
0.97171223 0.9513279 0.8665906 0.9281172 0.9289841 0.8892255 1.1161209 0.941492
1.0338103 1.0037404 1.0502249 0.78240794 0.86211234 0.92185795 1.0892133 0.922363
0.9399689 1.0730126 1.0264277 0.9465648 0.9557615 0.9199358 0.97379124 1.0603955
0.99088764 1.1131146 1.1221036 0.9208797 1.1022716 0.9319872 0.9217209 1.0155057
0.9712654 1.1043442 0.9726825 1.04709 0.8805862 1.0077233 0.8622239 0.897571
0.83701545 0.9416484 1.17857 0.8671289 0.9604017 1.187689 1.1272038 0.881407
0.973775 1.0912529 0.8999225 0.8991569 0.9056004 0.9288052 0.8476227 0.92058897
00000000: ec60 713f 8dbd 7a3f 1983 923f 9516 593f
00000010: 8193 873f 2eb5 6c3f e1f4 573f 4467 703f
00000020: 22c2 783f 3a8a 733f e2d8 5d3f 1799 6d3f
00000030: e7d1 6d3f 48a4 633f 0ddd 8e3f 9f05 713f
00000040: e553 843f 917a 803f c56d 863f e34b 483f
00000050: 65b3 5c3f e2fe 6b3f 576b 8b3f fb1f 6c3f
00000060: cda1 703f 7a58 893f fc61 833f 1252 723f
00000070: c9ac 743f ea80 6b3f 624a 793f 0abb 873f
00000080: d0aa 7d3f 8a7a 8e3f 17a1 8f3f c6be 6b3f
00000090: 3c17 8d3f b796 6e3f e7f5 6b3f 17fc 813f
000000a0: d9a4 783f 275b 8d3f b801 793f 0c07 863f
000000b0: 196e 613f 14fd 803f b5ba 5c3f 37c7 653f
000000c0: a546 563f df0f 713f 62db 963f 29fc 5d3f
000000d0: e3dc 753f 3106 983f 3748 903f e4a3 613f
000000e0: 5249 793f 2dae 8b3f 5261 663f 262f 663f
000000f0: 6ed5 673f 2dc6 6d3f cdfd 583f b8ab 6b3f

ln1.bias f4 [64]
0.08644687 0.093171775 0.005912916 0.081096545 -0.009061896 -0.10922324 -0.040892098 -0.0370203
-0.050604437 -0.009987406 -0.056710422 -0.08247111 0.034331985 -0.05708823 -0.08589821 0.037284564
-0.007743985 -0.004033993 0.004553324 -0.06157487 -0.0059396294 0.099047765 0.008528677 0.08727796
-0.016056959 -0.010501923 0.06915614 -0.07082895 0.0009436821 0.0024406507 -0.05687758 0.010494867
0.094064474 -0.0027311675 0.028573826 0.01462605 -0.025770245 0.0674722 -0.034461804 -0.046915058
0.026088824 0.02129588 0.067883015 0.036853846 0.03866627 0.03245266 0.079764225 0.068792805
0.029315269 -0.055610526 -0.020355603 -0.001313474 0.04003471 -0.03276425 0.040811054 0.07536882
0.05088776 -0.0035031787 -0.037901048 -0.010634472 0.014981748 -0.01495048 0.049454875 0.094447464
00000000: 0e0b b13d d8d0 be3d 22c1 c13b f215 a63d
00000010: 5978 14bc 6fb0 dfbd 797e 27bd 99a2 17bd
00000020: 9946 4fbd 38a2 23bc 3049 68bd 9de6 a8bd
00000030: b29f 0c3d 59d5 69bd 67eb afbd b3b7 183d
00000040: 41c1 fdbb 962f 84bb 0d34 953b ee35 7cbd
00000050: 39a1 c2bb 8ed9 ca3d ddbb 0b3c c9be b23d
00000060: e289 83bc 4210 2cbc bca1 8d3d c50e 91bd
00000070: 6f61 773a 53f3 1f3b 77f8 68bd aaf2 2b3c
00000080: e0a4 c03d 63fd 32bb a813 ea3c 1aa2 6f3c
00000090: 1f1c d3bc dd2e 8a3d d227 0dbd 012a 40bd
000000a0: 3bb8 d53c b374 ae3c 4006 8b3d 0ff4 163d
000000b0: 8660 1e3d 15ed 043d 6d5b a33d 3ee3 8c3d
000000c0: 9326 f03c ddc7 63bd cbc0 a6bc e028 acba
000000d0: 70fb 233d ce33 06bd 7e29 273d f85a 9a3d
000000e0: af6f 503d 9695 65bb 213e 1bbd 353c 2ebc
000000f0: 0176 753c dcf2 74bc 3291 4a3d ac6d c13d

lstm2.weight_ih_l0 f4 [128, 64]
0.0527246 -0.018777927 0.07698494 0.011581857 0.09800266 -0.034671184 -0.15691487 -0.041088965
0.046453822 0.037188612 -0.166299 -0.047992874 0.06557415 0.052682567 -0.035410076 0.01729289
-0.013843503 0.085768186 0.035787866 0.10178017 -0.16076164 -0.03715511 0.022245588 -0.020514948
0.16253872 0.23430465 -0.002322169 0.33883268 -0.039903495 -0.15932263 0.17832392 -0.035994705
-0.23485853 -0.0061071147 -0.033338856 0.18468125 -0.1056395 0.014966445 0.13660978 0.19241849
0.16667826 -0.083293 -0.017601503 -0.12865171 -0.26528692 -0.14363113 -0.14147767 0.08886854
0.010128241 0.06310942 -0.067014396 -0.08965715 0.2816691 0.11707167 -0.31073967 0.051194824
0.15939595 -0.09300248 0.03862267 -0.09406507 0.018175444 0.11089694 -0.19837762 0.040364303
-0.1634329 0.013658235 0.116693296 -0.2612051 0.07412292 0.014575864 -0.21136615 0.21632163
-0.18435657 0.12891422 0.07728982 0.13124683 0.059323132 -0.10205791 0.012894467 -0.015195403
0.21642993 -0.03713422 -0.13578333 -0.016955411 -0.0075163073 -0.25400805 -0.17909776 -0.056957345
0.0269597 0.24762361 -0.025649615 -0.047930926 0.1360311 -0.020757804 0.10007352 -0.19588423
-0.21321642 -0.04450334 -0.27108747 -0.28099957 -0.01699469 -0.07993014 -0.12552692 0.28624612
-0.07591625 -0.2816858 0.16706511 -0.27322072 -0.19229639 0.10041483 0.06184206 0.04344474
0.013899892 -0.16280785 -0.23365678 0.043640524 0.025000924 -0.03330383 -0.36139783 0.029012082
0.17417459 -0.15320453 0.053767517 0.16489303 -0.0680472 -0.0674692 0.20707762 0.22947389
0.15580812 0.05174736 -0.26606795 -0.0041899276 -0.14120398 0.0638055 0.12523003 0.03375909
-0.12574756 -0.09615679 -0.1121624 -0.165234 0.13993184 -0.075959906 -0.18262763 -0.2273369
-0.23454967 -0.21125324 0.13499004 -0.06875142 -0.10009137 -0.0066515533 0.033936407 -0.1263441
-0.060977038 -0.054717697 0.11452971 0.10156751 -0.14297505 -0.05790227 0.102421 0.25990924
0.11054364 0.06620121 0.29822204 0.16159919 -0.057802085 0.0071567763 -0.045997407 -0.19911197
0.103647985 -0.022204395 -0.22032799 0.17992093 -0.02642328 0.04433784 0.032448698 -0.022766866
0.101919204 0.017438969 0.028519126 0.042151477 -0.1210357 0.10323433 0.15261456 0.0036640645
0.10094735 0.050865576 0.0942924 -0.24246031 -0.07400071 -0.19646902 -0.14795466 0.1349796
0.19089481 0.05948752 0.1514786 0.14739536 -0.07539174 -0.04019405 -0.1532823 0.066113316
-0.08744128 -0.062281154 -0.06885885 0.07708786 0.074858405 -0.19635747 -0.27931005 -0.027241915
-0.032650817 -0.073621646 0.11663803 0.09481027 0.114265434 -0.023616442 -0.24826577 -0.030567292
0.03557619 -0.38325566 0.14180739 -0.07611304 -0.009553737 -0.055968013 0.04878033 -0.06552443
0.070356645 -0.3731638 -0.17691907 -0.10179265 0.16130944 -0.081557326 0.04887053 -0.27139372
-0.36026898 0.15837741 -0.20544814 0.28928384 -0.07748996 -0.0065168254 0.09238588 -0.10119398
-0.15929747 -0.15377395 0.32759506 -0.08832252 -0.21097511 0.09903912 0.50060904 0.05972937
-0.15079416 0.0843634 -0.07394388 -0.1800517 0.010345039 -0.008133283 0.017563568 0.22180283
00000000: c0f5 573d 2bd4 99bc 48aa 9d3d d4c1 3d3c
00000010: 9eb5 c83d 5f03 0ebd 4bae 20be e74c 28bd
00000020: 5d46 3e3d 1653 183d 494a 2abe 2d94 44bd
00000030: bd4b 863d adc9 573d 280a 11bd d2a9 8d3c
00000040: dccf 62bc 3ba7 af3d 4c96 123d 1f72 d03d
00000050: b39e 24be f52f 18bd 613c b63c f70e a8bc
00000060: 8d70 263e 8fed 6f3e 882f 18bb 7a7b ad3e
00000070: d971 23bd 7925 23be 8c9a 363e 2f6f 13bd
00000080: c17e 70be 311e c8bb 538e 08bd 151d 3d3e
00000090: 8659 d8bd d235 753c 6fe3 0b3e 5a09 453e
000000a0: b5ad 2a3e 8595 aabd 0731 90bc 46bd 03be
000000b0: b0d3 87be 0a14 13be 86df 10be b600 b63d
000000c0: ecf0 253c 833f 813d d83e 89bd 2b9e b7bd
000000d0: ef36 903e 46c3 ef3d 4519 9fbe aab1 513d
000000e0: b138 233e 1678 bebd ce32 1e3d 30a5 c0bd
000000f0: abe4 943c ef1d e33d 8123 4bbe 0a55 253d
00000100: f45a 27be cac6 5f3c e5fc ee3d adbc 85be
00000110: c2cd 973d 9bcf 6e3c 5e70 58be 6b83 5d3e
00000120: f8c7 3cbe 1702 043e 204a 9e3d 9265 063e
00000130: d0fc 723d bd03 d1bd 5143 533c 24f6 78bc
00000140: cf9f 5d3e 0d1a 18bd c90a 0bbe 13e6 8abc
00000150: 5b4b f6bb 580d 82be 6765 37be 1b4c 69bd
00000160: 97da dc3c 0b91 7d3e 241f d2bc 3853 44bd
00000170: bd4b 0b3e 450c aabc 58f3 cc3d e095 48be
00000180: 6855 5abe 2249 36bd facb 8abe 2ddf 8fbe
00000190: 7338 8bbc 6ab2 a3bd 218a 00be da8e 923e
000001a0: fb79 9bbd 1f39 90be 1e13 2b3e 96e3 8bbe
000001b0: 58e9 44be 4aa6 cd3d 1a4e 7d3d 1df3 313d
000001c0: 5fbc 633c 1ab7 26be b943 6fbe 68c0 323d
000001d0: bdce cc3c 9969 08bd 2309 b9be bfaa ed3c
000001e0: d35a 323e a6e1 1cbe 543b 5c3d b8d9 283e
000001f0: 555c 8bbd 4b2d 8abd 280c 543e 34fb 6a3e
00000200: 2a8c 1f3e 0af5 533d 0f3a 88be a94b 89bb
00000210: c797 10be 75ac 823d 4d3c 003e f946 0a3d
00000220: f8c3 00be daed c4bd 66b5 e5bd 1a33 29be
00000230: 4b4a 0f3e de90 9bbd bd02 3bbe 01cb 68be
00000240: ca2d 70be c552 58be d43a 0a3e 8bcd 8cbd
00000250: b4fc ccbd 46f5 d9bb e700 0b3d 5960 01be
00000260: 0fc3 79bd aa1f 60bd 8d8e ea3d a002 d03d
00000270: 0d68 12be ee2a 6dbd 1ac2 d13d d312 853e
00000280: b464 e23d 8094 873d 8fb0 983e 427a 253e
00000290: e1c1 6cbd 6483 ea3b c767 3cbd 02e4 4bbe
000002a0: 6545 d43d fee5 b5bc a99d 61be 313d 383e
000002b0: a275 d8bc 989b 353d ede8 043d 9481 babc
000002c0: 04bb d03d 2bdc 8e3c f1a0 e93c 07a7 2c3d
000002d0: 91e1 f7bd 856c d33d fe46 1c3e cd20 703b
000002e0: 7cbd ce3d 6c58 503d 601c c13d 8447 78be
000002f0: af8d 97bd 2d2f 49be 6d81 17be 1838 0a3e
00000300: ee79 433e 30a9 733d 351d 1b3e cfee 163e
00000310: fc66 9abd 84a2 24bd 09f6 1cbe 6b66 873d
00000320: 6a14 b3bd 861a 7fbd de05 8dbd 3de0 9d3d
00000330: 5d4f 993d ef11 49be ba01 8fbe 702a dfbc
00000340: ddbc 05bd f2c6 96bd ebdf ee3d e32b c23d
00000350: ff03 ea3d 4577 c1bc 6239 7ebe 4268 fabc
00000360: 57b8 113d 163a c4be f535 113e 27e1 9bbd
00000370: 4787 1cbc b73e 65bd e2cd 473d ac31 86bd
00000380: 2517 903d 530f bfbe 462a 35be aa78 d0bd
00000390: 4d2e 253e 8707 a7bd 772c 483d 1ef4 8abe
000003a0: 2d75 b8be b02d 223e ff60 52be 031d 943e
000003b0: 0eb3 9ebd 188b d5bb cf34 bd3d ca3e cfbd
000003c0: e01e 23be eb76 1dbe 8aba a73e 70e2 b4bd
000003d0: dc09 58be 06d5 ca3d ea27 003f c9a6 743d
000003e0: c969 1abe b8c6 ac3d e46f 97bd 795f 38be
000003f0: 3d7e 293c 7641 05bc 79e1 8f3c 4820 633e

lstm2.weight_hh_l0 f4 [128, 32]
0.21076472 0.10317745 -0.19242023 -0.107772715 -0.022791252 -0.068495795 0.09806987 -0.2462738
-0.14189681 0.034989122 -0.008734278 -0.15551266 -0.017063815 0.017985474 0.18014416 0.03974806
0.20345308 0.111224055 -0.1945961 -0.04187873 0.2287376 0.3146053 0.10803303 0.1335489
0.19017252 -0.11072544 -0.22578971 -0.21454202 0.2204723 0.01536641 -0.16027388 0.07812839
0.34372792 -0.1081819 0.040302657 0.047866717 -0.09778341 -0.014281545 0.14938267 -0.17070651
-0.009185775 -0.09108827 0.13434413 -0.049602233 -0.03948333 0.051849343 0.2677358 0.056088448
0.041476548 0.36684301 -0.069094695 -0.12700996 0.19787258 -0.23651822 0.12395849 -0.09312902
0.13036804 0.19822218 0.04773589 0.14128076 0.15948963 -0.10561882 -0.027879678 0.35462084
-0.16262388 0.062295742 -0.062175382 -0.26199824 0.0070931558 0.1661545 0.15286319 0.27982527
0.10172332 -0.11884944 -0.04210816 0.039938517 0.13466422 -0.120799996 -0.16829525 -0.34278092
-0.07128253 0.033931673 -0.05286679 0.00795633 0.11750206 -0.006935371 0.060940642 -0.043440696
0.09662081 -0.019413931 0.18822657 -0.086300895 0.1925714 0.048781667 0.102753386 0.008019123
0.09136701 -0.08552426 -0.18419841 0.10223848 -0.13883562 0.10433852 0.11534041 -0.04996033
0.18924524 0.0073922207 -0.13908356 -0.063386925 -0.060530912 -0.007279787 -0.07744197 0.035704628
0.05603908 0.21408321 -0.03624171 0.110004656 0.086537905 -0.01587167 0.11188997 0.18637682
0.07055592 0.117974125 -0.18718411 -0.096753575 -0.2620877 -0.12629658 -0.019311905 0.028317738
0.19730052 0.081950076 -0.07271804 -0.17252196 -0.026876817 -0.35241526 0.12720512 0.24604143
-0.1963387 -0.2692577 0.12065545 0.098661736 0.1113279 0.15682314 -0.24150375 -0.14824142
-0.15091188 0.04793103 -0.04194697 -0.05823344 0.19088963 -0.15025546 0.030791048 0.12272984
-0.06948767 -0.15046123 0.11528494 -0.064125426 0.21379252 -0.0032927266 -0.17914742 -0.16301744
0.023479093 -0.041113686 -0.09466746 -0.081352174 -0.07399083 -0.1650436 0.2146864 -0.004535561
0.052825548 -0.024608664 0.08615576 -0.1891395 0.019936353 0.21853848 0.10752357 -0.117674865
-0.10546758 0.014220354 -0.1567922 -0.097068496 0.054320347 -0.0139763225 -0.020150566 0.06430778
0.23460573 -0.08478955 0.022414748 0.1977661 0.15309455 0.1502215 -0.02880816 0.09257698
0.24316064 0.09638766 -0.037847813 -0.04876932 -0.16059843 -0.31582853 0.19989298 0.08316276
-0.3052883 0.09450991 0.2042771 0.04500823 0.067387715 0.10199152 0.039161045 -0.101935565
-0.23115149 0.29030728 0.1539914 -0.14633292 -0.0158996 0.012701923 -0.029661618 -0.031732246
0.12081677 -0.11314985 -0.03270827 -0.19611003 0.17307313 -0.0758954 0.08319478 -0.07197804
0.0707948 0.07421862 0.12296768 -0.062361885 0.08824571 0.07501679 -0.116917625 0.009732136
-0.01932433 -0.2738218 -0.12993638 -0.029983122 -0.15830483 0.06296462 -0.0073320596 0.035815917
-0.10548369 -0.015661325 0.012412561 0.26497632 0.19953196 0.1177525 -0.18742123 0.2636027
0.03078512 0.049980212 0.06824219 0.0065571656 -0.26966143 0.30288726 0.23538727 0.24504523
00000000: b5d2 573e b34e d33d cf09 45be f1b7 dcbd
00000010: b8b4 babc 8647 8cbd dbd8 c83d 332f 7cbe
00000020: 664d 11be c150 0f3d 381a 0fbc b63e 1fbe
00000030: 6ac9 8bbc 4656 933c b677 383e ddce 223d
00000040: 0156 503e 70c9 e33d 3344 47be 0889 2bbd
00000050: 303a 6a3e f213 a13e 6c40 dd3d 0bc1 083e
00000060: 96bc 423e 05c4 e2bd 6b35 67be e7b0 5bbe
00000070: 7ec3 613e 65c3 7b3c d61e 24be c701 a03d
00000080: 1bfd af3e 798e ddbd 6614 253d e40f 443d
00000090: ab42 c8bd 24fd 69bc c5f7 183e b0cd 2ebe
000000a0: ef7f 16bc 7d8c babd 8291 093e b62b 4bbd
000000b0: 46b9 21bd fa5f 543d ab14 893e 00bd 653d
000000c0: 50e3 293d d9d2 bb3e 8581 8dbd e60e 02be
000000d0: 1c9f 4a3e d531 72be f3dd fd3d 6dba bebd
000000e0: 337f 053e c1fa 4a3e b586 433d e7ab 103e
000000f0: 4051 233e ae4e d8bd ec63 e4bc dd90 b53e
00000100: e086 26be d229 7f3d 9dab 7ebd a224 86be
00000110: b46d e83b 6824 2a3e 2b88 1c3e 4245 8f3e
00000120: 5154 d03d 5667 f3bd 9b79 2cbd 9296 233d
00000130: 6be5 093e fd65 f7bd 9755 2cbe fb80 afbe
00000140: 93fc 91bd f0fb 0a3d d98a 58bd 445b 023c
00000150: eca4 f03d 1c42 e3bb e59c 793d dfee 31bd
00000160: 22e1 c53d f709 9fbc 77be 403e 86be b0bd
00000170: 7031 453e 49cf 473d 5e70 d23d a462 033c
00000180: a01e bb3d 5827 afbd 829e 3cbe 6862 d13d
00000190: ed2a 0ebe 6faf d53d 9837 ec3d 34a3 4cbd
000001a0: 81c9 413e 713a f23b ec6b 0ebe 01d1 81bd
000001b0: 43ef 77bd 488b eebb e599 9ebd 043f 123d
000001c0: 3c89 653d a138 5b3e 3072 14bd 1f4a e13d
000001d0: c93a b13d 4e05 82bc 9226 e53d 91d9 3e3e
000001e0: 9f7f 903d 6b9c f13d 31ad 3fbe bd26 c6bd
000001f0: 5c30 86be e453 01be 0034 9ebc 9afa e73c
00000200: 2609 4a3e 71d5 a73d 32ed 94bd 99a9 30be
00000210: c52c dcbc c66f b4be 0f42 023e 49f2 7b3e
00000220: 030d 49be 25dc 89be 341a f73d 2a0f ca3d
00000230: e2ff e33d 3f96 203e c24c 77be 99cc 17be
00000240: a588 1abe 5453 443d 96d0 2bbd 3086 6ebd
00000250: 9278 433e 91dc 19be 823d fc3c c859 fb3d
00000260: 8d4f 8ebd 8212 1abe 831a ec3d 3154 83bd
00000270: 6dec 5a3e c9ca 57bb 6c72 37be 0bee 26be
00000280: 3a57 c03c d366 28bd 03e1 c1bd f89b a6bd
00000290: 8188 97bd 3101 29be c0d6 5b3e 0b9f 94bb
000002a0: 9a5f 583d 1c98 c9bc 6e72 b03d c9ad 41be
000002b0: 9051 a33c 8dc8 5f3e 5135 dc3d 85ff f0bd
000002c0: 63ff d7bd 7dfc 683c 228e 20be d9cb c6bd
000002d0: 037f 5e3d f2fc 64bc cd12 a5bc ccb3 833d
000002e0: 7c3c 703e 25a6 adbd 229f b73c 3283 4a3e
000002f0: d1c4 1c3e aad3 193e 17ff ebbc 0099 bd3d
00000300: 1aff 783e e566 c53d 4f06 1bbd 57c2 47bd
00000310: ea73 24be 47b4 a1be bfb0 4c3e 3d51 aa3d
00000320: c04e 9cbe 698e c13d 042e 513e 8d5a 383d
00000330: 9202 8a3d eee0 d03d 5567 203d 98c3 d0bd
00000340: fab2 6cbe 28a3 943e ecaf 1d3e 4cd8 15be
00000350: e13f 82bc ba1b 503c ecfc f2bc acf9 01bd
00000360: c86e f73d 1cbb e7bd 1bf9 05bd 11d1 48be
00000370: 153a 313e 0c6f 9bbd 0662 aa3d 3969 93bd
00000380: ddfc 903d efff 973d 7bd6 fb3d 2d6f 7fbd
00000390: 2bba b43d 67a2 993d 8272 efbd 8973 1f3c
000003a0: 0f4e 9ebc 5f32 8cbe 0b0e 05be 2a9f f5bc
000003b0: a91a 22be 98f3 803d c641 f0bb b6b3 123d
000003c0: d507 d8bd 2e4c 80bc 0e5e 4b3c faaa 873e
000003d0: 1b52 4c3e 3928 f13d 5aeb 3fbe eff6 863e
000003e0: 1331 fc3c 0db8 4c3d 90c2 8b3d 7edd d63b
000003f0: 1011 8abe 0a14 9b3e 5c09 713e 23ed 7a3e

lstm2.bias_ih_l0 f4 [128]
0.17807212 0.12931952 0.070962116 -0.07522835 -0.05083561 0.16680281 0.04907307 0.09802031
0.06549378 -0.028447146 -0.079617634 0.20604043 0.12231257 0.09654188 0.0021990112 0.016526073
-0.01341236 0.06107218 0.20663808 0.19763836 0.10103654 -0.029691665 -0.13456586 0.013680542
0.32529408 -0.12917876 0.0013186547 -0.029115066 -0.113326184 0.050776884 -0.11571331 0.0074001043
0.005693879 -0.091874555 -0.20563707 0.07902762 -0.3575785 -0.11762032 -0.2820295 0.12954073
-0.079850934 -0.18262258 0.041464113 0.17719026 0.041035533 0.05877884 -0.15552358 -0.1696114
0.021786457 -0.03950882 -0.0391167 0.0015569618 -0.21346854 0.041421834 -0.106780104 -0.24365786
0.03348862 0.051984627 -0.03116819 -0.07349506 -0.062341865 -0.2193126 0.019146936 0.0477712
0.080255985 0.11959596 -0.09087741 -0.09498318 -0.12280156 0.1211915 -0.065485075 -0.0697955
0.16616468 -0.09875647 -0.11289861 -0.010030758 -0.15932162 -0.074290566 0.15322876 0.24154556
-0.08795713 -0.16636945 0.026410097 0.079977825 -0.013539381 -0.118406855 0.09649908 0.17009073
0.0860977 0.18922548 0.0943035 0.11089802 0.030668927 0.08636909 0.16786258 0.16555491
0.064598866 0.28332016 -0.19685063 0.015038901 0.008272176 0.33221677 -0.017390003 0.031190885
0.13490382 0.0076746345 0.32001525 0.14881998 -0.034042284 -0.21069078 0.08997216 -0.08980473
0.20612699 -0.059205998 0.16045468 0.16143064 0.030260608 0.012047232 -0.0084391665 -0.27397746
0.31000078 -0.1959382 -0.16398609 -0.1984229 0.034767903 0.047508925 -0.10439301 -0.19165075
00000000: 8a58 363e 566c 043e 9654 913d 5211 9abd
00000010: 0039 50bd 5bce 2a3e d800 493d dfbe c83d
00000020: 9a21 863d fd09 e9bc 920e a3bd 43fc 523e
00000030: 037f fa3d c0b7 c53d 491d 103b b061 873c
00000040: 84bf 5bbc d226 7a3d ef98 533e b661 4a3e
00000050: 3fec ce3d ef3b f3bc a2cb 09be 5a24 603c
00000060: f28c a63e 7047 04be b6d6 ac3a b882 eebc
00000070: 8f17 e8bd 6cfb 4f3d 1afb ecbd 937c f23b
00000080: b893 ba3b ba28 bcbd 8692 52be 3cd9 a13d
00000090: 8714 b7be ece2 f0bd 2c66 90be 53a6 043e
000000a0: e388 a3bd 6a01 3bbe 46d6 293d 5d71 353e
000000b0: e014 283d 15c2 703d 9341 1fbe 9cae 2dbe
000000c0: 8379 b23c 00d4 21bd d538 20bd f812 cc3a
000000d0: 7f97 5abe f1a9 293d 87af dabd 7281 79be
000000e0: 5d2b 093d d5ed 543d 6f54 ffbc 9484 96bd
000000f0: 2f5a 7fbd 7b93 60be 09da 9c3c bcab 433d
00000100: 405d a43d baee f43d ef1d babd 8b86 c2bd
00000110: 627f fbbd 4033 f83d 0a1d 86bd f1f0 8ebd
00000120: 1327 2a3e d540 cabd 6337 e7bd 0c58 24bc
00000130: 3525 23be a725 98bd 00e8 1c3e b857 773e
00000140: de22 b4bd c15c 2abe fd59 d83c 6acb a33d
00000150: 48d4 5dbc 4b7f f2bd 4fa1 c53d 442c 2e3e
00000160: fe53 b03d 53c4 413e 3222 c13d 801e e33d
00000170: 673d fb3c 47e2 b03d 2be4 2b3e 3a87 293e
00000180: 694c 843d 570f 913e 3693 49be b965 763c
00000190: 0588 073c 5118 aa3e 7b75 8ebc 0784 ff3c
000001a0: 3a24 0a3e 807b fb3b 0ad9 a33e 4464 183e
000001b0: ec6f 0bbd 53bf 57be 5343 b83d 8beb b7bd
000001c0: f412 533e fd81 72bd 3b4e 243e 134e 253e
000001d0: 18e5 f73c c161 453c 6e44 0abc c646 8cbe
000001e0: 6cb8 9e3e 06a4 48be f8eb 27be 5f2f 4bbe
000001f0: ca68 0e3d b898 423d 01cc d5bd 1840 44be

lstm2.bias_hh_l0 f4 [128]
-0.098344535 0.12818407 -0.22836953 -0.04950432 -0.16687515 0.0075740265 -0.23389496 0.048173804
-0.04070271 0.028456481 0.014010638 -0.0018915725 0.0057862764 -0.033396702 0.030743726 0.13052332
0.2073336 -0.14507753 -0.0061839926 0.09181021 -0.09847007 0.21043214 0.046469588 0.04854915
0.14542483 -0.036415443 0.17113578 -0.2690219 0.0836783 -0.21848576 -0.078179464 -0.17434281
-0.069839574 0.119538605 -0.25407448 -0.20607714 -0.12350362 -0.0051871096 -0.28136998 -0.14351258
0.02838975 -0.11987522 -0.13762853 0.15157355 0.037393525 -0.022558365 -0.10334785 -0.038339455
-0.065283805 -0.14069664 -0.20092912 -0.064978935 -0.09326225 0.07187594 -0.04020719 -0.101623885
-0.09372547 -0.17435776 0.013484008 -0.26351714 -0.028172478 -0.21282043 -0.29949117 -0.15329881
-0.029726803 0.061029285 0.11306132 0.16479027 -0.10477447 0.110230096 0.0787929 -0.110138096
-0.003552716 -0.09627769 -0.19810998 0.06878155 -0.17258532 0.047098342 -0.020717328 0.102715574
0.023854995 0.15633349 -0.20929131 0.017734746 -0.06138921 0.15333618 -0.03825259 0.025527764
0.04369008 0.20511998 0.06963766 0.19644712 -0.05828345 0.033372603 0.026465857 -0.0016138967
-0.082788624 0.23779933 -0.1813443 0.111670636 -0.2776296 0.24149354 -0.21680617 -0.047374234
0.23861776 -0.11274392 0.31143433 0.1269784 0.05723515 -0.12377603 0.10674066 -0.04267425
-0.030603768 -0.048706446 0.07866475 0.15156333 -0.14446288 0.0397426 -0.027186172 -0.1899394
0.09798608 -0.20475012 -0.065845184 -0.13876186 -0.17469573 0.063880146 -0.27447596 -0.018651705
00000000: dc68 c9bd af42 033e b4d9 69be 0bc5 4abd
00000010: 52e1 2abe 8a2f f83b 2982 6fbe e551 453d
00000020: e3b7 26bd 911d e93c e08c 653c a4ee f7ba
00000030: ce9a bd3b fbca 08bd 44da fb3c e8a7 053e
00000040: 424f 543e 348f 14be 17a3 cabb fe06 bc3d
00000050: adaa c9bd 867b 573e e556 3e3d 79db 463d
00000060: 3fea 143e 5c28 15bd 383e 2f3e 3dbd 89be
00000070: 875f ab3d bbba 5fbe 8e1c a0bd ec86 32be
00000080: 0d08 8fbd a8d0 f43d 0d16 82be e305 53be
00000090: 77ef fcbd a1f8 a9bb ba0f 90be f6f4 12be
000000a0: 9f91 e83c 2481 f5bd 7eee 0cbe 1936 1b3e
000000b0: f429 193d 52cc b8bc 0aa8 d3bd d509 1dbd
000000c0: 84b3 85bd c812 10be 5dc0 4dbe ad13 85bd
000000d0: 4700 bfbd b133 933d 4bb0 24bd 2f20 d0bd
000000e0: 24f3 bfbd d78a 32be 07ec 5c3c b8eb 86be
000000f0: f8c9 e6bc 99ed 59be e856 99be 5dfa 1cbe
00000100: a085 f3bc d8f9 793d b18c e73d c8be 283e
00000110: ff93 d6bd 51c0 e13d 2c5e a13d 1590 e1bd
00000120: afd4 68bb 3d2d c5bd 58dd 4abe 57dd 8c3d
00000130: 35ba 30be 31ea 403d 63b7 a9bc 8b5c d23d
00000140: 8d6b c33c e315 203e 7650 56be 7548 913c
00000150: 4173 7bbd 2904 1d3e bfae 1cbd 9a1f d13c
00000160: 5ff4 323d f90a 523e 319e 8e3d 6f29 493e
00000170: a0ba 6ebd b6b1 083d edce d83c 6389 d3ba
00000180: 158d a9bd ab81 733e 52b2 39be 93b3 e43d
00000190: 7825 8ebe 154a 773e 7002 5ebe 7c0b 42bd
000001a0: 3758 743e 49e6 e6bd 5274 9f3e a006 023e
000001b0: 686f 6a3d 4a7e fdbd d99a da3d 32cb 2ebd
000001c0: c1b4 fabc 6980 47bd fc1a a13d 6b33 1b3e
000001d0: 14ee 13be 23c9 223d 89b5 debc 797f 42be
000001e0: edac c83d 04aa 51be d7d9 86bd 9717 0ebe
000001f0: 70e3 32be 98d3 823d 1d88 8cbe 76cb 98bc

ln2.weight f4 [32]
1.0887456 1.0552278 1.5912875 1.1676476 1.1637162 0.9523529 1.0429118 0.84358215
1.0686017 1.5965946 0.9119855 1.0600362 1.3037244 1.2090527 1.106457 1.2691836
1.361046 0.96231973 1.2594477 1.1509782 1.3317887 1.0847527 1.2653378 1.304316
0.99402136 1.3316675 1.0649756 1.4262387 1.0845832 1.4851788 1.2407951 1.2024248
00000000: 045c 8b3f b411 873f 4faf cb3f 7a75 953f
00000010: a7f4 943f 66cd 733f 227e 853f 00f5 573f
00000020: f1c7 883f 365d cc3f e277 693f 44af 873f
00000030: 71e0 a63f 3dc2 9a3f 62a0 8d3f 9c74 a23f
00000040: c136 ae3f 965a 763f 9535 a13f 4153 933f
00000050: 0d78 aa3f 2dd9 8a3f 97f6 a13f d4f3 a63f
00000060: 2f78 7e3f 1574 aa3f 1f51 883f fd8e b63f
00000070: 9fd3 8a3f 571a be3f 60d2 9e3f 0ee9 993f

ln2.bias f4 [32]
0.03982895 -0.059620723 -0.018538054 -0.12184208 0.028479662 -0.11317723 0.044013117 0.11978123
-0.06204245 0.07220659 0.10555013 0.06049912 0.120119035 0.01582285 -0.13120103 -0.0523189
-0.024683718 0.07499148 0.20128289 0.080932215 0.010001725 0.021845419 0.015107881 0.034815542
-0.26057762 0.0054720063 -0.012048702 0.06122587 -0.009873494 0.07552956 -0.05766466 -0.066626556
00000000: ae23 233d dc34 74bd 1edd 97bc 5788 f9bd
00000010: 2e4e e93c 77c9 e7bd 1947 343d dd4f f53d
00000020: 3920 7ebd 0ce1 933d ab2a d83d edcd 773d
00000030: f800 f63d ec9e 813c 9059 06be 584c 56bd
00000040: 8235 cabc 2295 993d 1a1d 4e3e cabf a53d
00000050: 46de 233c 2af5 b23c 0c87 773c be9a 0e3d
00000060: 6e6a 85be 844e b33b eb67 45bc fac7 7a3d
00000070: 6fc4 21bc 3eaf 9a3d c731 6cbd 8173 88bd
